my_way_home/models/my_way_home.model (torch_old, 683085 bytes, 16 tensors)

feature.0.weight f4 [32, 4, 3, 3]
0	0x3c6cb709	0.014447936
1	0x3d9ccb9c	0.07656023
2	0xbeffa481	-0.49930194
3	0x3da06ce8	0.07833272
4	0xbdf1c85b	-0.11805793
5	0x3e07aaf2	0.13248804
6	0x3eb74c30	0.35800314
7	0x3d8166b7	0.063184194
8	0x3eeb3bd3	0.4594408
9	0x3e35d562	0.1775718
10	0xbd58c9d7	-0.052926864
11	0xbe6a3f68	-0.2287575
12	0x3e60a1a0	0.21936655
13	0x3ea31788	0.3185389
14	0x3ce48f10	0.027900249
15	0x3cd9d1ee	0.02658936
16	0xbe792184	-0.24329191
17	0x3ea7a0e3	0.32739934
18	0x3d06f567	0.032948878
19	0x3e6b8002	0.2299805
20	0xbdcc9210	-0.09988797
21	0xbcdab75c	-0.02669876
22	0xbc1cdcb3	-0.009574103
23	0xbceb115c	-0.028694801
24	0x3ec153a4	0.37759125
25	0xbdf1cce7	-0.1180666
26	0x3f048add	0.5177439
27	0xbe5cae6e	-0.21550915
28	0xbde582dd	-0.11206601
29	0xbe94294f	-0.28937766
30	0xbe1cb0e2	-0.1530185
31	0x3e92c953	0.28669223
32	0x3e8844f8	0.2661512
33	0xbec34be0	-0.38143826
34	0x3ea04dc8	0.31309342
35	0x3e1b75fe	0.15181729
36	0xbdcbede8	-0.099574864
37	0xbf013512	-0.50471604
38	0xbe60fff5	-0.2197264
39	0xbe93da5e	-0.28877538
40	0xbe8ff123	-0.2811366
41	0x3eacf9a7	0.3378422
42	0x3e6d1c35	0.23155291
43	0x3e21580a	0.1575624
44	0x3d605bcf	0.054775055
45	0x3c3cfe35	0.011535217
46	0x3e3fda43	0.18735604
47	0xbdd7b293	-0.10532107
48	0xbe9ff623	-0.31242475
49	0xbe92a809	-0.28643826
50	0xbda5bfca	-0.080932215
51	0xbe5071a2	-0.20355847
52	0xbdd66494	-0.104684025
53	0x3e11fd51	0.14256789
54	0xbeaba14c	-0.33521497
55	0xbeb41269	-0.35170296
56	0x3ca44c58	0.020055935
57	0xbb1ca052	-0.002389927
58	0x3d2e4fd1	0.042556588
59	0xbce57ada	-0.028012682
60	0x3db0f8a9	0.08641178
61	0x3f1d43e9	0.6143175
62	0x3e4b3448	0.19844162
63	0xbdf71a97	-0.120656185
64	0x3ef60b52	0.48055512
65	0xbe89ea4c	-0.26936567
66	0x3b247e6c	0.0025099767
67	0x3c348ed4	0.011020381
68	0xbd72d31e	-0.05928337
69	0x3eed55fe	0.4635467
70	0x3e4e4551	0.2014363
71	0x3e0f2127	0.1397749
72	0x3de280d6	0.1105973
73	0xbe4a8071	-0.19775559
74	0xbe8f71ac	-0.28016412
75	0x3da7b119	0.081880756
76	0x3ddfd333	0.10928955
77	0xbdec3da5	-0.11535195
78	0x3e1b7ace	0.15183565
79	0xbe0733c7	-0.13203345
80	0xbe9746cc	-0.295462
81	0x3ef40df5	0.47666898
82	0x3e08d1c7	0.13361274
83	0xbe13013d	-0.14355941
84	0xbc948a75	-0.018132428
85	0x3e840c8e	0.25790828
86	0x3df2295f	0.11824297
87	0xbe8300b1	-0.25586465
88	0x3e13dc2f	0.14439462
89	0xbced83a0	-0.028993428
90	0x3dd69d49	0.104792185
91	0x3ebdcdee	0.37071174
92	0x3e9d50a1	0.30725577
93	0xbe2bf905	-0.16794212
94	0xbecb3712	-0.39690453
95	0x3ebae09d	0.3649949
96	0xbe877295	-0.26454607
97	0x3e377f19	0.17919578
98	0xbdbf3d1b	-0.09337827
99	0x3c93ed8c	0.018057607
100	0xbbb01c4b	-0.0053744665
101	0x3e41aa90	0.1891272
102	0x3f086ac8	0.53287935
103	0x3f1b3cfe	0.6063994
104	0xbe247f79	-0.16064252
105	0x3e24f669	0.16109623
106	0x3e8dd199	0.27698973
107	0x3e054c00	0.13017273
108	0xbd00f63b	-0.031484824
109	0x3d78aa0c	0.060709044
110	0x3e416208	0.18885052
111	0x3e0e1d2b	0.13878314
112	0x3e8288bc	0.25494945
113	0x3dfe79f2	0.12425603
114	0xbe8390ad	-0.25696316
115	0xbe2eb1e7	-0.17060052
116	0x3ee1404f	0.43994376
117	0xbda4c06f	-0.08044516
118	0x3ecaf81e	0.39642423
119	0x3ecabece	0.39598697
120	0xbdddac54	-0.108238846
121	0x3e496732	0.19668272
122	0xbe2c8466	-0.16847381
123	0xbed1d65d	-0.4098386
124	0xbde98d2e	-0.11403881
125	0xbd6c1a4c	-0.057642266
126	0xbda0908e	-0.078400716
127	0xbe07ab03	-0.1324883
128	0xbe2e3453	-0.17012148
129	0xbc0bc3a6	-0.008530533
130	0xbd494fdb	-0.04914842
131	0xbb567669	-0.0032724387
132	0xbda84086	-0.08215432
133	0xbedb6f44	-0.42858326
134	0x3d81369e	0.063092455
135	0xbe9c5451	-0.30533078
136	0xba7babd7	-0.0009600496
137	0xbd389964	-0.04506816
138	0x3e77396b	0.24142997
139	0x3f03acd6	0.514356
140	0x3e908868	0.2822907
141	0x3f1de095	0.6167081
142	0x3eb95b27	0.36202356
143	0xbe3fd4e1	-0.1873355
144	0x3d892e98	0.0669834
145	0x3ee51d2a	0.44748813
146	0x3db3bd99	0.08776397
147	0x3d3175a5	0.043325085
148	0x3e7aa835	0.24478228
149	0x3e2af0c7	0.16693412
150	0x3e3781aa	0.17920557
151	0x3d05939d	0.032611478
152	0xbe3061f9	-0.17224874
153	0xbe501f95	-0.20324548
154	0xbe64abe5	-0.22331198
155	0xbde1ad91	-0.11019433
156	0x3de95401	0.113929756
157	0x3e14569e	0.14486167
158	0x3ef2b6f4	0.47405207
159	0xbe7030a0	-0.23456049
160	0xbecbb147	-0.3978369
161	0x3e40a218	0.18811834
162	0xbe2a0d4e	-0.16606638
163	0xbeb0f493	-0.34561595
164	0x3e0560c2	0.13025191
165	0xbe2e0b43	-0.16996484
166	0xbe09802e	-0.13427803
167	0xbe57bebd	-0.21068855
168	0xbea1fac1	-0.31636623
169	0x3c8248d1	0.015903862
170	0x3e78d6b9	0.2430066
171	0xbdbd6e02	-0.09249498
172	0x3eebdb2d	0.46065655
173	0x3e9cc42e	0.30618423
174	0x3ee2316d	0.44178334
175	0x3e80086a	0.2500642
176	0x3e382240	0.17981815
177	0x3b0e5b94	0.0021722065
178	0xbec40c5b	-0.38290676
179	0xbd2c6d21	-0.04209626
180	0xbe99374c	-0.29925
181	0x3de2bc9f	0.11071133
182	0xbe1ed616	-0.15511355
183	0x3d6713fd	0.056415547
184	0xbd9674c2	-0.073464885
185	0x3d31edfd	0.043439854
186	0xbe8ba6e7	-0.27275774
187	0x3e0218fe	0.12704846
188	0xbe27a57f	-0.16371725
189	0xbcd50ba9	-0.026006537
190	0x3d9c2057	0.07623356
191	0x3f1b4c3e	0.6066321
192	0xbd87a021	-0.06622339
193	0x3e05aca9	0.13054146
194	0x3e1184d4	0.14210826
195	0xbea60b85	-0.32430664
196	0x3e88eaea	0.26741725
197	0xbdaaf14b	-0.08346804
198	0xbdde8702	-0.108655944
199	0x3ecb5f46	0.39721125
200	0x3e41f403	0.1894074
201	0xbe4b297f	-0.19840048
202	0xbec24d54	-0.37949622
203	0xbe3da08d	-0.18518277
204	0x3ea8016a	0.3281358
205	0x3d59acb9	0.053143237
206	0x3ebd983f	0.37030217
207	0xbe5f8c3b	-0.21830837
208	0x3e0dc166	0.13843307
209	0xbdedb3a5	-0.1160653
210	0xbe2ae3db	-0.16688482
211	0xbf1424a0	-0.57868385
212	0xbd9634ff	-0.07334327
213	0xbe89167c	-0.26774967
214	0xbf013ee6	-0.504866
215	0xbd7486d4	-0.059698895
216	0x3e83925d	0.25697604
217	0xbd8f5ecc	-0.07000503
218	0x3dde92d2	0.108678475
219	0x3ee8de47	0.45482084
220	0x3c4f5011	0.012653367
221	0xba7f5367	-0.0009739906
222	0x3e48c6bb	0.1960706
223	0xbe093a02	-0.13401034
224	0x3ce66acf	0.028127102
225	0xbdfaaae7	-0.12239628
226	0xbe5273c3	-0.20551972
227	0x3e82f948	0.25580812
228	0xbec10c63	-0.37704763
229	0xbe750eae	-0.23931381
230	0xbd9e62b8	-0.07733673
231	0x3eb83785	0.35979858
232	0x3b1ec134	0.0024224045
233	0xbe493655	-0.19649632
234	0x3de6307f	0.11239719
235	0xbc63cd32	-0.013903903
236	0xbe242184	-0.1602841
237	0xbe094afc	-0.1340751
238	0xbed10c9a	-0.40829927
239	0xbf050c4f	-0.51971906
240	0x3e6a805e	0.2290053
241	0x3e6aa724	0.22915322
242	0x3ef45f01	0.47728732
243	0x3e324cce	0.17412111
244	0xbe3f9f36	-0.18713078
245	0x3e4e3e5b	0.20140974
246	0x3e7408e6	0.2383152
247	0x3e105e62	0.14098504
248	0x3d36491e	0.044503324
249	0x3e820808	0.25396752
250	0x3e8f3ac6	0.27974528
251	0x3f00b178	0.50270796
252	0xbc43129d	-0.011906293
253	0xbe60975c	-0.21932739
254	0x3dc6fc5f	0.09716105
255	0xbe0d1ada	-0.13779774

feature.0.bias f4 [32]
0	0xbe32a9ea	-0.1744763
1	0xbcb1effb	-0.021720877
2	0xbe0e97cd	-0.13925095
3	0xbdb7a643	-0.08967259
4	0xbd9d0fc0	-0.0766902
5	0x3e5b1004	0.21392828
6	0xbd8511fc	-0.06497571
7	0xbd680e96	-0.056654535
8	0x3d93065b	0.071789466
9	0xbe12f35a	-0.14350644
10	0x3deccaf7	0.1156215
11	0xbe5c5816	-0.21517977
12	0x3d9da731	0.07697905
13	0xbd85ea44	-0.06538823
14	0xbc4c8eb0	-0.012485191
15	0x3e137b37	0.14402471
16	0x3c5d9f74	0.013526786
17	0xbdc4066d	-0.09571538
18	0x3dde796d	0.10863004
19	0x3dfcde2d	0.12347064
20	0xbd3d5a16	-0.04622849
21	0xbd1ed9a8	-0.038781792
22	0x3cf6d0c5	0.030128846
23	0x3d32bac6	0.043635152
24	0x3e770b08	0.24125302
25	0xbe30a768	-0.1725136
26	0xbd0988ec	-0.033577845
27	0xbde307db	-0.11085483
28	0x3de19673	0.11015024
29	0xbe97cf95	-0.2965056
30	0xbdb5fdd9	-0.08886308
31	0xbbb99324	-0.0056632925

feature.2.weight f4 [32, 32, 3, 3]
0	0x3bae05d9	0.0053107557
1	0xbe089f31	-0.13341977
2	0xbe09a261	-0.13440849
3	0xbc894ff2	-0.016761754
4	0x3e0f5c81	0.14000131
5	0x3e172b21	0.14762546
6	0x3dda3ac9	0.10655744
7	0x3dd5b768	0.104353726
8	0xbd240cd5	-0.0400513
9	0x3ce858c8	0.028362647
10	0x3e3b0ef0	0.18267417
11	0x3d185d34	0.03719826
12	0x3e741f64	0.238401
13	0x3e7e7722	0.24850133
14	0x3e01c07d	0.12671085
15	0xbe10921e	-0.1411824
16	0x3d3006bd	0.042975176
17	0xbe11f505	-0.14253624
18	0x3d9c75eb	0.076396786
19	0x3d7b3f87	0.06133988
20	0xbe41f0bf	-0.18939494
21	0xbdc32b7d	-0.09529779
22	0xbcaefd0d	-0.021360898
23	0xbe083f2a	-0.13305345
24	0x3e0cf454	0.13765079
25	0x3e563247	0.20917617
26	0x3e3f5d71	0.18687989
27	0xbc0f61b6	-0.008751323
28	0x3c89d5ba	0.016825546
29	0xbdb8c715	-0.09022347
30	0xbdcec2d1	-0.10095752
31	0x3e465601	0.19368745
32	0x3db2cbf6	0.08730309
33	0x3b84dd4b	0.0040547005
34	0xbd2dac31	-0.042400543
35	0x3dea893e	0.11451958
36	0xbd18f113	-0.03733928
37	0xbc4e8ad9	-0.012606346
38	0x3db88345	0.09009413
39	0x3dfa7d2d	0.12230907
40	0x3db9de3f	0.09075593
41	0xbccf3a07	-0.025296224
42	0x3e62a709	0.22134031
43	0xbd79d18b	-0.06099085
44	0x3e19bc9e	0.15013358
45	0x3d8e102a	0.06936677
46	0xbd978b05	-0.07399563
47	0xbb1403d4	-0.002258529
48	0xbdf7aa81	-0.12093068
49	0xbda41717	-0.080122165
50	0xbc58541d	-0.013203648
51	0xbe066707	-0.1312524
52	0xbe1a37ad	-0.15060301
53	0xbe5e1644	-0.21688181
54	0xbc05d764	-0.008169029
55	0xbd29809a	-0.04138241
56	0xbc80fa5f	-0.015744386
57	0x3e677ba7	0.22605763
58	0x3ddcd1ac	0.10782179
59	0x3d9f23dd	0.07770512
60	0x3dfab35f	0.122412436
61	0xbc321489	-0.010869154
62	0x3c27f3ab	0.010250966
63	0x3cb6c144	0.022308953
64	0xbd088cd0	-0.033337414
65	0x3d3c886d	0.046028543
66	0xbd848027	-0.064697556
67	0xbcd712a8	-0.026254013
68	0xbd7fbfa9	-0.06243864
69	0x3d2e36b2	0.04253263
70	0xbca1b348	-0.019738808
71	0x3e566f40	0.20940876
72	0x3d147aaf	0.036249813
73	0xbde1c027	-0.11022978
74	0xbda47655	-0.080303825
75	0xbd2ce829	-0.042213593
76	0x3d0f7f2a	0.035033382
77	0x3d290e76	0.041273557
78	0x3dfcf921	0.12352205
79	0x3e27e364	0.16395336
80	0x3d96d085	0.07363991
81	0x3c21bb14	0.009871263
82	0xbe086731	-0.13320614
83	0x3dd5d60f	0.10441219
84	0x3d8b14e8	0.06791097
85	0x3dc87a50	0.09788954
86	0xbc90b974	-0.017666556
87	0x3e111d00	0.14171219
88	0x3cc49da1	0.024000945
89	0x3e03509f	0.12823723
90	0x3da26eaa	0.07931264
91	0x3dab0bba	0.08351846
92	0x3d9c2c56	0.07625644
93	0x3d4c659d	0.049901593
94	0x3d2193ce	0.0394476
95	0xbe243cb9	-0.16038789
96	0xbd98bf40	-0.07458353
97	0xbde1f1b0	-0.11032426
98	0x3cad9738	0.02119027
99	0xbe037510	-0.12837625
100	0xbd6c9c23	-0.05776609
101	0xbdd36fc2	-0.103240505
102	0x3c86b0d3	0.016441738
103	0xbd8ea076	-0.06964199
104	0x3d8a0e73	0.06741037
105	0x3d125fc4	0.03573586
106	0x3e447413	0.19184904
107	0x3ddf05b7	0.10889762
108	0xbd56cb80	-0.052440166
109	0x3b90b441	0.004416019
110	0x3d8f7a87	0.07005792
111	0xbdd3374a	-0.1031328
112	0xbd94c6b6	-0.072644636
113	0x3d817cf6	0.063226625
114	0x396f7332	0.0002283573
115	0xbdec97d9	-0.115524
116	0x3d70e777	0.058814492
117	0xbe1e6f03	-0.15472035
118	0x3cece0db	0.028915813
119	0x3d25f580	0.04051733
120	0x3d2f26a5	0.042761464
121	0x3e52e573	0.2059534
122	0x3e6133cc	0.21992415
123	0x3d97fe77	0.07421582
124	0x3d8891c5	0.06668428
125	0x3e31c09b	0.1735863
126	0x3be63ad8	0.0070260577
127	0x3bfe7875	0.0077658244
128	0xbbe74460	-0.0070577115
129	0xbd16b9d5	-0.036798317
130	0x3ccce1f2	0.025010083
131	0xbe1c2503	-0.15248494
132	0xbe59fe73	-0.21288471
133	0xbda194e4	-0.07889727
134	0x3da4258f	0.08014976
135	0x3e00499f	0.12528084
136	0xbe06d5a9	-0.13167442
137	0x3e2fde7e	0.17174718
138	0x3dcc13bd	0.09964702
139	0x3d44b2cd	0.04802208
140	0x3bbb5a8e	0.005717582
141	0xbda8b254	-0.082371384
142	0x3c1b8a8c	0.009493481
143	0xbd084304	-0.033267036
144	0x3e03baac	0.12864178
145	0x3d04c986	0.03241875
146	0x3c8b447e	0.017000433
147	0xbd96c11b	-0.07361051
148	0x3d255339	0.04036257
149	0xbd38c200	-0.045106888
150	0xbd6aa2d1	-0.05728418
151	0xbd437ef5	-0.047728498
152	0xbde98d2a	-0.11403878
153	0xbd01f832	-0.031730838
154	0xbdd23ea3	-0.10265853
155	0xbde26bce	-0.11055718
156	0x3dfecc34	0.124412924
157	0xbd92ba0c	-0.07164392
158	0x3d49f1a9	0.04930273
159	0xba2f8279	-0.0006695162
160	0x3d1e6b06	0.038676284
161	0xbd2b3a0e	-0.041803412
162	0x3e20958b	0.15682046
163	0x3d9dc7c4	0.07704118
164	0x3d87ae14	0.06625
165	0xbd190cce	-0.037365727
166	0x3d9c630b	0.076360784
167	0xbd6a57c6	-0.057212614
168	0xbdbada96	-0.09123723
169	0x3bca5e8c	0.0061758216
170	0x3cd7abc5	0.026327023
171	0x3c86f1d2	0.01647273
172	0x3dfba179	0.12286658
173	0x3d004733	0.0313179
174	0x3df30307	0.11865812
175	0xbd83b712	-0.06431402
176	0x3cf7372e	0.030177679
177	0xbd7eb545	-0.06218459
178	0xbd1e4fce	-0.038650326
179	0x3d227944	0.03966643
180	0xbd966d26	-0.07345037
181	0xbd20cafa	-0.039256074
182	0xbd6023d0	-0.054721653
183	0x3dd5495a	0.10414381
184	0xbd54240d	-0.051792193
185	0x3d8f513f	0.06997918
186	0x3b9e48ad	0.004830441
187	0x3de0c240	0.1097455
188	0xbdec7143	-0.115450405
189	0xbd72b553	-0.059254956
190	0x3d153a24	0.0364324
191	0x3c60e20a	0.013725767
192	0x3d9427cb	0.072341524
193	0x3d99d812	0.07511915
194	0x3e2225b5	0.15834697
195	0x3e3afe82	0.1826115
196	0x3de03337	0.109472685
197	0x3e203dda	0.15648594
198	0x3d276be1	0.040874366
199	0x3d02f272	0.031969495
200	0xbc5edd9e	-0.013602642
201	0x3d5b89da	0.053598262
202	0x3dccf3bd	0.10007427
203	0x3e7da9af	0.2477176
204	0xbd8c5fbe	-0.06854199
205	0x3d56f135	0.052476127
206	0xbd98d678	-0.07462782
207	0x3c047e18	0.008086704
208	0x3e71b290	0.23603272
209	0x3d2925aa	0.041295685
210	0xbd7dc625	-0.061956543
211	0xbe0f34af	-0.13984941
212	0xbe002910	-0.12515664
213	0x3c98528d	0.01859405
214	0xbe5025df	-0.20326947
215	0xbd1df941	-0.038567785
216	0x3c7d4abb	0.015459712
217	0xbe4c646a	-0.1996018
218	0x3d8b91e3	0.06814935
219	0xbe553363	-0.20820384
220	0xbe072423	-0.13197379
221	0xbcc87b72	-0.024472926
222	0xbdb148c9	-0.08656461
223	0xbe550f80	-0.20806694
224	0xbda84bcd	-0.08217583
225	0xbc92c6d8	-0.017917082
226	0x3c8ca4a4	0.01716835
227	0xbda1accf	-0.07894289
228	0x3d8dcb36	0.06923525
229	0x3d69d7c4	0.057090536
230	0x3dad9606	0.0847588
231	0x3e2ac5a6	0.1667696
232	0x3ccd8612	0.025088344
233	0x3df5b162	0.11996724
234	0xbd8bf388	-0.06833559
235	0x3d15e241	0.036592726
236	0xbd4be1d9	-0.049775932
237	0xbe1c408d	-0.15258999
238	0xbd40054d	-0.046880055
239	0x3d9e6d0e	0.07735644
240	0x3e3dd5b5	0.18538554
241	0x3e1baf0f	0.15203498
242	0x3e187b14	0.148907
243	0xbd09f2c6	-0.033678792
244	0x3bbcc8fc	0.005761264
245	0xbdb30890	-0.087418675
246	0xbc5b2379	-0.013375157
247	0x3df52468	0.119698346
248	0x3de3cc5b	0.11122962
249	0x3e4fe82f	0.20303415
250	0x3e0912b2	0.13386038
251	0x3e42aa8d	0.19010372
252	0x3d8a8cd5	0.06765143
253	0x3d58d853	0.052940678
254	0x3cc3071f	0.023807107
255	0xb894d7d7	-7.097393e-05

feature.2.bias f4 [32]
0	0xbd3648fd	-0.0445032
1	0xbe027f72	-0.12743929
2	0x3b521ebc	0.0032061776
3	0x3c962083	0.01832605
4	0x3d937693	0.072003506
5	0xbd8c4468	-0.06848985
6	0xbe0d285b	-0.13784926
7	0x3c24341f	0.010022192
8	0xbe14c6ae	-0.14528915
9	0xbd9f5f26	-0.0778182
10	0x3da6fd9b	0.0815384
11	0x3dd12b29	0.1021331
12	0x3d6a8959	0.05725989
13	0xbc0ae12f	-0.0084765395
14	0xbd9cd37a	-0.076575235
15	0x3d065a6b	0.032801073
16	0xbdb941b1	-0.09045733
17	0xbda8f7ae	-0.08250366
18	0xbd25c06c	-0.04046671
19	0x3d06a490	0.032871783
20	0xbe0e3d1e	-0.13890502
21	0xbe1126e9	-0.14175
22	0xbdd5d220	-0.10440469
23	0x3e2ba554	0.16762286
24	0xbe2c22f5	-0.1681021
25	0x3dd7b87d	0.10533235
26	0x3c7b2f0c	0.015331041
27	0x3de09a86	0.10966973
28	0xbdc22e53	-0.09481492
29	0xbda43fa0	-0.08019948
30	0xbc96c570	-0.018404692
31	0xbd03c7b9	-0.032172892

feature.4.weight f4 [32, 32, 3, 3]
0	0xbdd5fbed	-0.10448442
1	0xbd309815	-0.043113787
2	0xbd402ab4	-0.046915725
3	0x3d3ce1fe	0.04611396
4	0x3d904e1f	0.070461504
5	0x3e48eee8	0.19622386
6	0x3cdc9035	0.026924232
7	0x3cecf30e	0.028924491
8	0x3ded21c0	0.11578703
9	0xbca01f5a	-0.0195462
10	0xbd44771a	-0.047965147
11	0x3dd9b14b	0.10629519
12	0xbdd355e5	-0.103191175
13	0x3dd808b0	0.10548532
14	0xbdfc2933	-0.123125456
15	0xbd395a49	-0.04525212
16	0xb9bd51b3	-0.0003610976
17	0xbda08ba1	-0.07839132
18	0xbc980988	-0.018559232
19	0x3e5ebb15	0.21751054
20	0x3e0136b1	0.1261852
21	0x3c0c6835	0.008569767
22	0x3c34135a	0.010990942
23	0x3c518587	0.012788183
24	0x3dbaf4ce	0.09128724
25	0xbcd2c457	-0.025728388
26	0xbe27448e	-0.16334745
27	0x3ce74153	0.028229391
28	0xbd1bc345	-0.03802802
29	0xbdf9e5b3	-0.12202015
30	0x3d84b56c	0.06479916
31	0xbd61b42c	-0.055103466
32	0x3bd1a801	0.0063982015
33	0xbd8b7ead	-0.06811271
34	0x3d34c043	0.044128668
35	0xbbe1f5ec	-0.0068957713
36	0x3e38c47c	0.18043703
37	0xbdc42ebb	-0.09579226
38	0x3e1e1e62	0.15441278
39	0xbd043e95	-0.032286245
40	0xbd16d323	-0.03682245
41	0x3de4fdd8	0.11181229
42	0xbd8464de	-0.064645514
43	0x3d16ca28	0.036813885
44	0xbdcf5995	-0.10124508
45	0x3d05313a	0.03251765
46	0x3e1534b4	0.14570886
47	0xbd3dcb0c	-0.04633622
48	0x3cb5baa0	0.022183716
49	0x3d8a60df	0.06756758
50	0x3dbbf1c0	0.091769695
51	0xbe137c42	-0.1440287
52	0x3dd45fb1	0.10369814
53	0xbd9eba03	-0.07750323
54	0xbb652fc1	-0.003497109
55	0x3d59b0ed	0.053147245
56	0x3d059aba	0.032618262
57	0xbdec048e	-0.11524306
58	0x3ddc02db	0.10742732
59	0x3d513723	0.051077973
60	0x3e0d414f	0.13794445
61	0x3d283daf	0.04107445
62	0x3de6c147	0.112673335
63	0xbe2012b9	-0.15632142
64	0x3ca0a21a	0.019608546
65	0x3c52294a	0.012827227
66	0x3df01631	0.11722983
67	0xbcfbd057	-0.030738993
68	0x3c599efe	0.013282536
69	0xbbea101f	-0.007143035
70	0xbe2a8db0	-0.16655612
71	0x3d7a1fb6	0.0610654
72	0x3df6210d	0.12018023
73	0x3d02fd5c	0.031979904
74	0x3dc65497	0.09684103
75	0xbcd322d1	-0.025773438
76	0xbc85c7b7	-0.016330583
77	0x3d644717	0.05573186
78	0x3d862463	0.06549909
79	0x3d0b1de7	0.033964064
80	0x3dd9d70f	0.10636722
81	0x3d2a9e4a	0.041654862
82	0xbd952ba7	-0.07283717
83	0x3e505125	0.20343454
84	0xbd81d704	-0.06339839
85	0x3d852de8	0.065028965
86	0xbdcb12bd	-0.099156834
87	0x3daeadfe	0.0852928
88	0xbd887217	-0.06662386
89	0xbe0b4be9	-0.13603176
90	0x3de4b0c4	0.11166528
91	0x3d154837	0.036445823
92	0x3d5ad405	0.053424854
93	0x3c8a07d6	0.01684944
94	0x3d7746aa	0.060370125
95	0xbdfbbb7e	-0.12291621
96	0xbc279e2b	-0.010230581
97	0x3d38e3e4	0.04513921
98	0x3d54b2b8	0.051928252
99	0x3dc75de7	0.09734707
100	0x3df15a6f	0.11784827
101	0xbd41794d	-0.047234822
102	0xbb5b38f2	-0.003345069
103	0xbd9cd126	-0.076570794
104	0xbd6b97b5	-0.057517726
105	0xbe1f3c82	-0.15550426
106	0xbeb9fb77	-0.36324665
107	0xbdc26299	-0.09491462
108	0x3cf6017b	0.030030003
109	0xbdfe12b3	-0.1240591
110	0xbcf878a7	-0.030330969
111	0xbce08a15	-0.027409593
112	0xbda5a81f	-0.08088707
113	0xbe3d235c	-0.1847052
114	0x3cfab4a8	0.030603722
115	0xbc26af13	-0.010173577
116	0x3e80dbed	0.2516779
117	0x3e005e7c	0.12536043
118	0xbd229699	-0.039694402
119	0x3e37d281	0.17951395
120	0xbc192e0b	-0.009349356
121	0x3c5763b4	0.01314633
122	0x3d38d5bf	0.04512572
123	0x3d104d4d	0.03522997
124	0xbd0ff98c	-0.035150096
125	0xbe0922f4	-0.1339224
126	0x3e28bf56	0.16479239
127	0xbd4dc002	-0.05023194
128	0x3e072c03	0.13200383
129	0x3be222e9	0.0069011343
130	0x3cf8ab50	0.030355126
131	0x3db4aeed	0.08822427
132	0x3d1b1fe7	0.03787222
133	0x3d911aca	0.07085188
134	0xbe121a1d	-0.14267774
135	0xbb6d2e32	-0.0036190865
136	0x3d8ba7f0	0.06819141
137	0x3dec2cda	0.11531992
138	0x3dc3ee08	0.09566885
139	0xbded225f	-0.115788214
140	0x3d65763f	0.05602097
141	0x3d7795f7	0.060445752
142	0x3d075ddd	0.0330485
143	0x3db8976b	0.09013256
144	0x3d96c5cc	0.073619455
145	0x3dc7a4ad	0.09748206
146	0xbda982cb	-0.082769
147	0xbd41bb6e	-0.047297888
148	0xbdc77598	-0.09739226
149	0x3d81fe20	0.063472986
150	0xbd3b6aa7	-0.04575601
151	0xbd5665f0	-0.05234331
152	0xbd09401a	-0.033508398
153	0xbda23d5e	-0.07921861
154	0xbd9a984b	-0.07548579
155	0xbd18ce1f	-0.037305947
156	0x3d69c7ea	0.05707542
157	0x3df43d4f	0.11925756
158	0x3d1c695e	0.038186423
159	0x3ceeb888	0.029140726
160	0x3cebb51e	0.028772887
161	0xbd2ce80b	-0.04221348
162	0xbe0fd4d5	-0.14046033
163	0xbdc0ae16	-0.09408204
164	0x39509a7b	0.00019893974
165	0x3c139148	0.009006806
166	0xbd2799a3	-0.040918004
167	0x3d6b06f4	0.057379678
168	0x3de348de	0.11097883
169	0xbd2680bd	-0.04065012
170	0xbded87af	-0.11598145
171	0x3db4f249	0.08835275
172	0xbcaf4137	-0.021393402
173	0xbe25d5dc	-0.16194862
174	0x3da46937	0.08027881
175	0xbd524fe3	-0.051345717
176	0x3d9409a2	0.072284
177	0xbc79025c	-0.015198316
178	0x3d4e38dc	0.050347194
179	0xbbbd3baa	-0.005774935
180	0x3d8c3dd8	0.06847733
181	0x3d268b22	0.04066003
182	0xbd6aeaac	-0.057352707
183	0x390fe552	0.00013722971
184	0x3dd7a29a	0.10529061
185	0x3df60276	0.12012188
186	0x3a948494	0.0011331015
187	0xbca9d580	-0.020731688
188	0x3e1e758b	0.15474527
189	0xbd82d35c	-0.0638797
190	0x3c8a9b22	0.016919676
191	0xbda7d436	-0.08194773
192	0x3df63239	0.12021298
193	0x3d19e4d2	0.037571736
194	0xbd854058	-0.06506413
195	0xbc72f427	-0.014828718
196	0xbcebabda	-0.028768469
197	0xbcb00781	-0.021487953
198	0x3d306c15	0.043071825
199	0x3cc48360	0.023988426
200	0x3cc1d2c3	0.02366007
201	0xbd944fed	-0.07241807
202	0xbba77ed7	-0.005111556
203	0xbd99e9c6	-0.07515292
204	0x3cabb320	0.020959437
205	0xbdca1de7	-0.09868985
206	0x3d1289f7	0.035776105
207	0xbd8c2741	-0.068434246
208	0xbe0d4a61	-0.13797905
209	0xbe054e4b	-0.13018148
210	0xbb7dca62	-0.0038725366
211	0x3d1a1c5a	0.037624694
212	0xbba7f405	-0.005125525
213	0x3e538bc6	0.20658788
214	0x3db288cc	0.08717498
215	0x3d951e34	0.072811514
216	0xbd266886	-0.040627025
217	0x3c059f99	0.008155727
218	0xbca75bdb	-0.020429542
219	0x3dbb0d55	0.09133402
220	0xbbb4095b	-0.0054942793
221	0xbd93b440	-0.07212114
222	0xbc7dd3db	-0.015492405
223	0x3ccc7199	0.024956511
224	0xbdd194d5	-0.102334656
225	0xbda879cb	-0.08226355
226	0xbe198de1	-0.14995529
227	0xbdec2fd7	-0.11532562
228	0xba71d077	-0.0009224484
229	0xbe1447f7	-0.14480577
230	0xbddd8da1	-0.10818029
231	0x3e45f9c6	0.19333562
232	0x3dc665d0	0.09687388
233	0x3d1828ed	0.037148405
234	0x3e0640f4	0.13110715
235	0xbd5fb0ea	-0.054612078
236	0x3db7779a	0.08958359
237	0xbe0def6a	-0.1386086
238	0x3d8eaa47	0.069660716
239	0xbc20c6a7	-0.009812987
240	0xbcc20587	-0.023684276
241	0xbcd8f46f	-0.026483743
242	0xbd64394c	-0.055718705
243	0x3cc614f1	0.024179908
244	0xbd32fba0	-0.043697
245	0xbbd7143a	-0.0065636905
246	0xbe41855f	-0.18898533
247	0xbea31d51	-0.31858304
248	0xbe224124	-0.15845162
249	0x3cdcea4a	0.026967186
250	0xbe30f8a4	-0.17282349
251	0xbd29100f	-0.04127508
252	0x3d8c56a8	0.06852466
253	0xbb8571f8	-0.004072424
254	0x3d50f9a0	0.05101931
255	0xbd6fa40c	-0.058506057

feature.4.bias f4 [32]
0	0xbd92c93b	-0.07167288
1	0x3c071900	0.008245707
2	0x3cd2a011	0.025711091
3	0xbd793e3f	-0.060850378
4	0xbd0b59b3	-0.03402109
5	0x3dbe42be	0.09290074
6	0xbc4f5e48	-0.012656756
7	0xbd879bf6	-0.06621544
8	0x3c553559	0.013013207
9	0xbd7cb435	-0.061695296
10	0xbc9f8327	-0.019471718
11	0x3d5eaa32	0.05436153
12	0x3c457942	0.012052836
13	0x3c01eff7	0.007930747
14	0xbbf63d8f	-0.0075146626
15	0xbd1a1715	-0.03761967
16	0x3daef76c	0.08543286
17	0x3d84314e	0.064547166
18	0xbc96d085	-0.018409977
19	0xbca6e37a	-0.020372141
20	0xbd25d001	-0.04048157
21	0xbb6bfc04	-0.0036008367
22	0x3b56c9dc	0.0032774126
23	0x3d13fe74	0.036131337
24	0xbc939548	-0.018015519
25	0xbd697380	-0.056994915
26	0x3d890f3d	0.066923596
27	0x3ba79de4	0.0051152576
28	0x3cffce0d	0.031226182
29	0x3d92df4f	0.07171499
30	0xbd8caa4f	-0.06868421
31	0x3c41d548	0.011830635

feature.6.weight f4 [32, 32, 3, 3]
0	0x3d054e71	0.03254551
1	0x3cb0dcc4	0.021589644
2	0xbd564287	-0.05230954
3	0xbe6a9536	-0.22908482
4	0xbd2ddfe2	-0.04244984
5	0x3d635430	0.05550021
6	0xbd846f6d	-0.06466565
7	0xbdc4d9a9	-0.09611828
8	0xbd92fb7c	-0.07176873
9	0xbdd28df4	-0.10280982
10	0x3d080d91	0.033216063
11	0xbd61ee60	-0.055158973
12	0xbe201a55	-0.15635045
13	0x3e28efd3	0.16497736
14	0xbd41e9c2	-0.04734207
15	0xbe286a62	-0.16446832
16	0xbca30762	-0.019900981
17	0xbb90d0c0	-0.004419416
18	0x3e65c482	0.22438243
19	0xbdb3defc	-0.08782765
20	0xbdb79dc7	-0.089656405
21	0x3d99294a	0.074785784
22	0xbcde4857	-0.027134104
23	0x3d07ea13	0.033182215
24	0x3d3855c8	0.045003682
25	0x3d831e24	0.06402233
26	0xbe0d356d	-0.13789912
27	0xbb50451b	-0.0031779471
28	0x3df538f9	0.11973757
29	0xbc8777b2	-0.016536567
30	0x3e271494	0.16316444
31	0x3e9c1e53	0.30491886
32	0xbd3167d0	-0.043311894
33	0x3cdc2cf0	0.026876897
34	0xbd8cb6a0	-0.068707705
35	0xbcfce5c6	-0.030871283
36	0xbdb4bade	-0.088247046
37	0xbd9c8314	-0.07642189
38	0xbd004130	-0.031312168
39	0xbd7c045b	-0.06152759
40	0xbd35d9e4	-0.04439725
41	0x3e44ce89	0.19219412
42	0x3d401f6e	0.046904974
43	0x3e4fc325	0.20289285
44	0x3d8cf267	0.06882172
45	0xbd8ea3c6	-0.06964831
46	0xbc8460ba	-0.016159404
47	0x3d82c92e	0.06386028
48	0x3e8cc220	0.27491856
49	0x3e50f0ca	0.20404354
50	0x3b9617fd	0.0045804963
51	0xbd31cf51	-0.043410603
52	0xbcac5f1b	-0.021041444
53	0xbdf7d307	-0.12100797
54	0x3e3c5129	0.18390335
55	0xbb8e9a70	-0.0043519065
56	0x3d9f05d1	0.07764781
57	0x3b32c4bc	0.0027277907
58	0xbbdda4d3	-0.0067640333
59	0x3e010208	0.12598431
60	0x3dba78f7	0.091051035
61	0xbb02194b	-0.0019851502
62	0x3c1779ab	0.0092453165
63	0xbd22e8a4	-0.039772645
64	0xbd0c1a97	-0.034205046
65	0xbe02bc6a	-0.12767187
66	0xbcaec99b	-0.021336367
67	0x3b5222fb	0.0032064307
68	0xbd0e1934	-0.034692004
69	0xbdb7a858	-0.08967656
70	0x3d9ff2e4	0.078099996
71	0xbdc2775a	-0.09495421
72	0x3d8bed06	0.06832318
73	0xbde32bcd	-0.11092339
74	0xbdca391d	-0.09874175
75	0xbca52168	-0.02015753
76	0xbd8f8147	-0.070070796
77	0x3d848983	0.06471541
78	0xbd1aab85	-0.03776123
79	0xbb7eabfa	-0.003885983
80	0xbdce1f7a	-0.100645974
81	0xbce212fa	-0.02759694
82	0x3d78a6ea	0.060706057
83	0xbda0f76d	-0.07859693
84	0x3d15d862	0.03658331
85	0x3dfdeec4	0.123990566
86	0x3ca6a25a	0.020341087
87	0xbc54f807	-0.012998587
88	0xbb8da1c1	-0.004322261
89	0xbc4c6d77	-0.01247727
90	0x3da81afa	0.0820827
91	0xbd4db1cb	-0.050218385
92	0x3d890b02	0.06691553
93	0x3c11c6b4	0.008897472
94	0x3e2df576	0.16988167
95	0x3c33fd37	0.010985664
96	0x3be87792	0.007094332
97	0xbdb9fc7a	-0.09081359
98	0x3d872750	0.06599295
99	0xbe3ddc22	-0.18541005
100	0x3c2244fa	0.009904141
101	0xbd704af5	-0.058665235
102	0xbe043967	-0.12912522
103	0xbd03cd17	-0.03217801
104	0x3d303531	0.043019477
105	0xbd0d9595	-0.03456648
106	0x3d4dc35c	0.050235137
107	0x3b6813cc	0.003541219
108	0xbe5065c5	-0.20351322
109	0x3d4316f6	0.04762932
110	0x3d6ca4fe	0.057774536
111	0xbd01800b	-0.031616252
112	0xbc3dfc1e	-0.011595754
113	0x3d76d264	0.060259238
114	0x3d9973e7	0.0749281
115	0x3dce05ff	0.100597374
116	0x3ca50b08	0.020146862
117	0xbe25bbc1	-0.16184904
118	0xbd935305	-0.07193569
119	0xbcb22ed3	-0.021750843
120	0x3ddf3795	0.10899273
121	0x3d42fc28	0.047603756
122	0x3d65408e	0.055969767
123	0x3cd494e5	0.025949905
124	0xbd888c34	-0.066673666
125	0xbdd3e06b	-0.10345539
126	0xbc9c0a9b	-0.019048026
127	0x3d3dd8e0	0.046349406
128	0x3db9cf9e	0.09072803
129	0x3e051d1c	0.12999386
130	0xbdcda841	-0.100418575
131	0x3e212d29	0.15739883
132	0x3dc64287	0.09680658
133	0x3e40a1b7	0.1881169
134	0xbcf9aedd	-0.03047889
135	0x3d3d0ef6	0.046156846
136	0x3d71533f	0.05891728
137	0x3dd7944b	0.105263315
138	0x3cee57b0	0.029094547
139	0x3e150ebd	0.14556403
140	0xbd995253	-0.07486405
141	0x3ce98dd5	0.028510014
142	0xbd8694bf	-0.0657134
143	0xbda42372	-0.08014573
144	0xbd02eecb	-0.031966012
145	0x3d420d48	0.047375947
146	0xbd833570	-0.06406677
147	0xbd47cba3	-0.048778187
148	0x3dab5c85	0.08367256
149	0x3c785ffc	0.015159603
150	0x3dd1403f	0.10217332
151	0x3caa871e	0.020816382
152	0xbd24ad4d	-0.040204335
153	0xbd882991	-0.06648553
154	0x3dcaa09f	0.09893917
155	0xbd8226b4	-0.06355038
156	0x3d23ff2f	0.040038284
157	0x3d7360f2	0.059418626
158	0x3db3ea2a	0.087848976
159	0xbdb3b5f6	-0.08774941
160	0xbe7febe6	-0.24992332
161	0xbb16b310	-0.0022994913
162	0xbd8a214d	-0.06744633
163	0x3c7f2ec1	0.015575112
164	0xbbf5cf4e	-0.0075015193
165	0x3d047761	0.03234041
166	0x3e2df001	0.16986085
167	0x3dd60cc9	0.10451657
168	0xbda22c9b	-0.07918664
169	0xbc67be11	-0.014144436
170	0x3ca4919f	0.020088969
171	0xbcdc7a12	-0.026913676
172	0x3dfaee0a	0.122524336
173	0xbc295ba3	-0.010336789
174	0x3d5e7dc8	0.054319173
175	0x3ccfa726	0.025348257
176	0x3da47909	0.08030898
177	0x3dfbef33	0.12301483
178	0x3d486f2d	0.04893415
179	0xbdbd6621	-0.09247995
180	0xbe0ee4a0	-0.13954401
181	0x3d5a244f	0.053257283
182	0x3d86411b	0.06555387
183	0xbd835129	-0.064119644
184	0x3d2e5897	0.042564955
185	0x3df5485b	0.11976691
186	0xbda6999f	-0.0813477
187	0xbae986e8	-0.0017816694
188	0xbc6af83e	-0.014341412
189	0x3d3765cc	0.044774815
190	0xbdfe4b7b	-0.124167405
191	0x3def6fb7	0.1169123
192	0x3e6709ee	0.22562382
193	0x3e81090a	0.2520221
194	0x3e37eddc	0.1796183
195	0x3d8992ac	0.067174286
196	0xbc6e6ba2	-0.014552029
197	0x3e590379	0.21192731
198	0x3cef9c14	0.029249229
199	0xbc9821d3	-0.018570816
200	0xbc9c5158	-0.019081756
201	0x3db1fd9a	0.08690949
202	0x3de84d22	0.11342837
203	0xbe046d4c	-0.12932318
204	0x3d704f6e	0.0586695
205	0xbdc17625	-0.094463624
206	0xbd3a0874	-0.045418218
207	0xbdcb6cff	-0.09932899
208	0xbe47a116	-0.19495043
209	0xbdd9157a	-0.105997995
210	0x3d7e85c6	0.062139295
211	0x3db57d7f	0.08861827
212	0xbe083032	-0.13299635
213	0x3dd0741a	0.101783946
214	0x3d7a270b	0.06107239
215	0xbd4bd46a	-0.04976312
216	0xbbb46418	-0.005505096
217	0xbcc44474	-0.023958422
218	0x3df24576	0.11829655
219	0x3da572c0	0.080785275
220	0xbc4b8542	-0.012421908
221	0x3d91120f	0.070835225
222	0xbcc6dc3e	-0.024274942
223	0x3d2c95ab	0.042134922
224	0x3e143d83	0.1447659
225	0xbdd25839	-0.102707334
226	0x3de8e2a2	0.11371352
227	0xbbcd5fe2	-0.0062675336
228	0xbc3b3eeb	-0.011428575
229	0xbe1b48ac	-0.15164441
230	0xbd0b469e	-0.034002893
231	0xbcc3548b	-0.023844024
232	0xbb23bf2c	-0.0024985773
233	0xbd09405d	-0.033508647
234	0x3cf4237f	0.029802082
235	0xbd9c1edf	-0.07623076
236	0x3db4fcaf	0.08837258
237	0xbe04761b	-0.12935679
238	0xbbebe535	-0.0071989545
239	0xbc56f1bc	-0.013119157
240	0x3cf0026a	0.029298026
241	0xbd5735c0	-0.052541494
242	0x3c9483d3	0.018129265
243	0xbca16bd5	-0.019704739
244	0xbdc7586c	-0.09733662
245	0xbd173e0c	-0.036924407
246	0x3d570169	0.05249158
247	0x3c898056	0.016784828
248	0xbcb12088	-0.021621957
249	0xbd2bf4a8	-0.04198137
250	0xbd08d44e	-0.033405595
251	0xbc681325	-0.014164721
252	0x3c96f0df	0.018425403
253	0xbd666f2f	-0.056258377
254	0x3e3cb4c4	0.18428332
255	0x3dc31609	0.09525687

feature.6.bias f4 [32]
0	0xbd84528f	-0.06461059
1	0x3d38ebe2	0.04514683
2	0x3d250076	0.040283643
3	0xbc62287d	-0.0138035985
4	0x3c5cf2b1	0.0134855965
5	0xbcb7950d	-0.02240994
6	0x3bf27286	0.007398906
7	0x3da2b755	0.07945124
8	0xbceea8cc	-0.029133223
9	0xbd241ecb	-0.04006843
10	0xbc21223f	-0.009834825
11	0x3d1d45e1	0.03839672
12	0xbc00fa1f	-0.0078721335
13	0xbc936462	-0.017992202
14	0x3d40c845	0.047065992
15	0xbc3db62f	-0.0115790805
16	0x3cb627a7	0.022235705
17	0xbc6fdd13	-0.014640111
18	0xbc4058e9	-0.011739948
19	0xbc912a9a	-0.01772051
20	0xbc787698	-0.015164994
21	0xbd640cb6	-0.055676185
22	0x3cfd3722	0.030910078
23	0x3d3f2bbe	0.046672575
24	0xbcb2d6b7	-0.0218309
25	0xbbd23789	-0.0064153117
26	0xbc784fa6	-0.015155708
27	0xbc83cdf4	-0.016089417
28	0x3c81e475	0.015856007
29	0x3ccf774d	0.025325442
30	0x3ce55f13	0.027999436
31	0x3d722ab5	0.05912276

feature.9.weight f4 [256, 288]
0	0x3de48801	0.11158753
1	0x3e793160	0.24335241
2	0x3cbc01eb	0.022950133
3	0x3b02f79b	0.001998401
4	0xbc658701	-0.014009238
5	0xbd25f68c	-0.04051833
6	0xbd3cb5c2	-0.046071775
7	0x3cff9f4d	0.03120389
8	0xbddd4d4a	-0.10805757
9	0xbe102d55	-0.14079793
10	0xbd7ca841	-0.061683897
11	0x3d8b2e96	0.06795995
12	0x3ce043ab	0.027376017
13	0x3deeb7c5	0.11656145
14	0xbe4cbf3a	-0.19994822
15	0xbd4ac6d8	-0.04950604
16	0x3d9d8a89	0.07692439
17	0x3e0dacef	0.138355
18	0xbdb841ca	-0.08996923
19	0xbe0d5154	-0.13800555
20	0x3d56ef39	0.052474234
21	0x3c7eccfe	0.015551804
22	0xbd426e33	-0.047468375
23	0x3d4ac475	0.049503762
24	0xbe05a1da	-0.13050023
25	0xbe224580	-0.15846825
26	0xbdbe7ef3	-0.093015574
27	0x3d79b10f	0.06095987
28	0x3d1dbc77	0.038509812
29	0xbd5a950c	-0.0533648
30	0xbcbd4110	-0.023102313
31	0x3cfbaedc	0.030723028
32	0x3c55ce49	0.0130496705
33	0x3ddd3bfd	0.108024575
34	0xbdb648a4	-0.08900574
35	0x3c935975	0.017986992
36	0xbc85a537	-0.016314132
37	0xbd033a2c	-0.0320379
38	0xba896cef	-0.0010484735
39	0x3d8d3f76	0.0689687
40	0x3dc852d3	0.097814225
41	0x3e5fb58d	0.218466
42	0x3d2543b1	0.04034776
43	0xbcd9aeea	-0.026572663
44	0x3e3bb599	0.18330993
45	0x3c483d42	0.012221636
46	0xbc495039	-0.012287193
47	0xbd22e8b9	-0.039772723
48	0x3dbac0bc	0.091187924
49	0x3d36bdc7	0.04461458
50	0xbe4752d0	-0.19465184
51	0x3d8087e1	0.06275917
52	0x3d800988	0.06251818
53	0xbc84fb92	-0.01623324
54	0xbdbf25c0	-0.09333372
55	0xbd4da528	-0.050206333
56	0xbe144450	-0.14479184
57	0xbc5e23fb	-0.013558383
58	0xbd3010ec	-0.042984888
59	0x3dadfd9a	0.08495636
60	0xbd97cac3	-0.074117206
61	0x3e4977c2	0.1967459
62	0x3e108746	0.14114103
63	0xbd943687	-0.07236963
64	0xbd3f0bb4	-0.04664202
65	0x3de1c3dc	0.11023685
66	0xbd825161	-0.06363178
67	0x3d48d0d2	0.04902727
68	0xbd1c52ec	-0.038165018
69	0xbdba248e	-0.090890035
70	0xbccc0016	-0.024902385
71	0x3dcfe536	0.101511404
72	0x3c9844b5	0.01858745
73	0x3dd4786b	0.103745304
74	0xbe5b5ca6	-0.21422061
75	0x3c8feff0	0.017570466
76	0x3ddc7823	0.10765102
77	0xbdf81e90	-0.12115204
78	0x3d1a01bf	0.03759932
79	0x37d553bf	2.5430576e-05
80	0x3cb30f74	0.021857955
81	0x3d32eddb	0.043683868
82	0xbcf58832	-0.02997217
83	0xbd12e7d2	-0.035865612
84	0xbe635950	-0.22202039
85	0x3c9c36e5	0.019069145
86	0xbe10ab76	-0.14127907
87	0xbe37446f	-0.17897199
88	0x3d58137d	0.05275296
89	0xbd4c45b3	-0.049871158
90	0x3d6ccfe5	0.05781545
91	0xbcf910a6	-0.030403446
92	0xbe22af68	-0.15887225
93	0x3d6d18bc	0.057884917
94	0x3b952724	0.004551785
95	0xbd8f0341	-0.069830425
96	0xbe850b2e	-0.25985092
97	0xbc8cbaad	-0.017178858
98	0xbaec05f6	-0.0018007148
99	0xbe39bf7c	-0.18139452
100	0x3dae1d51	0.085016854
101	0xbe116e7b	-0.14202301
102	0x3d34c7d2	0.044135876
103	0x3d81efcc	0.06344566
104	0xbcc44bb3	-0.023961877
105	0x3c9f424b	0.01944079
106	0x3e15f7f6	0.14645371
107	0x3cd5d324	0.026101656
108	0xbb9177e5	-0.0044393414
109	0x3d0a2936	0.033730708
110	0xbcc8dd6c	-0.024519645
111	0x3dde9200	0.10867691
112	0xbd569e86	-0.052397273
113	0x3dd79db9	0.1052813
114	0xbd3a78b1	-0.045525257
115	0xbd3081dd	-0.043092597
116	0xbcc62149	-0.024185793
117	0x3e32665d	0.17421861
118	0x3db42145	0.08795408
119	0x3cdd90d6	0.027046602
120	0xbe4d32dd	-0.20038934
121	0x3d8b3616	0.067974254
122	0xbdfbb350	-0.122900605
123	0x3dc209b3	0.09474506
124	0xbd7b04ad	-0.061283756
125	0xbd70ba66	-0.058771513
126	0x3e40d20b	0.18830125
127	0x3d385614	0.045003965
128	0x3e4d286e	0.20034954
129	0xbde10443	-0.10987141
130	0xbd32d13f	-0.043656584
131	0xbda73f95	-0.08166424
132	0xbdf67739	-0.12034459
133	0xbdbd04a3	-0.092294
134	0xbd5ef949	-0.054436956
135	0x3d04ec61	0.03245199
136	0xbd053477	-0.032520737
137	0x3d03eac0	0.032206297
138	0x3dc3818c	0.095461935
139	0x3e28ab18	0.16471517
140	0xbd3e02ef	-0.046389516
141	0xbd92f7e2	-0.07176186
142	0xbe80fa32	-0.25190884
143	0x3d2de4e7	0.042454626
144	0xbd951b76	-0.072806284
145	0xbdc95a0d	-0.09831629
146	0x3dbb6424	0.0914996
147	0x3dc991db	0.09842273
148	0xbd83418e	-0.06408988
149	0xbe1d022c	-0.1533286
150	0x3ced9e13	0.02900604
151	0xbe57e0c9	-0.21081842
152	0x3c0dd1b8	0.008655958
153	0xbd1149fe	-0.035470955
154	0x3dac49a6	0.08412485
155	0x3dea63bc	0.11444804
156	0xbd85c331	-0.065313704
157	0xbd90fc4c	-0.07079372
158	0xbd9aeeed	-0.07565103
159	0x39cc947a	0.00039020536
160	0x3da71e2e	0.08160053
161	0x3cbdd5f8	0.023173317
162	0xbda18b1a	-0.0788786
163	0xbd93d316	-0.07217996
164	0x3d960be6	0.07326488
165	0x3b8135f6	0.0039432
166	0xbdc22a44	-0.09480718
167	0xbc0d4073	-0.008621323
168	0xbe0509c3	-0.12992005
169	0xbc12ccf1	-0.008959995
170	0xbda2b652	-0.07944931
171	0xbd86fb13	-0.06590857
172	0xbd5cd0de	-0.05391013
173	0x3c826d41	0.015921237
174	0x3d439955	0.04775365
175	0x3e35962e	0.1773307
176	0x3c836a38	0.01604186
177	0xbbaca3ce	-0.0052685505
178	0x3dee6a68	0.11641389
179	0xbda7d8e0	-0.081956625
180	0x3dce2a9f	0.10066723
181	0x3dcab38a	0.098975256
182	0xbe301654	-0.17196018
183	0xbe1bffa3	-0.15234236
184	0x3cd573c5	0.02605618
185	0xbde988f1	-0.114030726
186	0xbdb77356	-0.089575455
187	0x3d1d4483	0.038395416
188	0xbdac34b3	-0.08408489
189	0xbd83925e	-0.06424402
190	0xbdfaf1e7	-0.122531705
191	0x3c1a34d3	0.009412008
192	0xbcdd2bd3	-0.026998436
193	0xbdb56ae3	-0.08858278
194	0x3d711227	0.058855202
195	0xbe344a5a	-0.17606488
196	0xbdff6906	-0.124712035
197	0x3dda5201	0.10660172
198	0x3cfadc5e	0.030622657
199	0xbde9181a	-0.1138155
200	0xbe05c88e	-0.13064787
201	0xbceb44e2	-0.02871937
202	0xbd5f48a0	-0.05451262
203	0xbca6c6a9	-0.0203584
204	0x3cfd4c15	0.030920068
205	0x3e37543d	0.17903228
206	0xbd28c799	-0.041205976
207	0x3dbc89ee	0.092059955
208	0xbdc58d5a	-0.09646101
209	0xbe79f730	-0.24410701
210	0x3dcbeed6	0.09957664
211	0x3d964b41	0.07338572
212	0x3d8da869	0.06916887
213	0x3dbb49d5	0.09144942
214	0x3d385108	0.044999152
215	0xbb966927	-0.004590172
216	0xbd0903a0	-0.033450723
217	0x3be54b99	0.0069975373
218	0xbcd8b030	-0.0264512
219	0x3ce5bed4	0.028045096
220	0xbdd97cc7	-0.106195025
221	0xbcd7f5c6	-0.026362311
222	0x3de5d575	0.11222354
223	0xbcb562fa	-0.022141922
224	0xbd43ff1a	-0.047850706
225	0x3b5e86b8	0.003395481
226	0x3e176c50	0.14787412
227	0xbe1bd7a7	-0.15218984
228	0x3ca57125	0.020195553
229	0x3dcca43e	0.09992264
230	0xbcdd840e	-0.027040508
231	0x3dad404a	0.08459528
232	0xbdfdb110	-0.123872876
233	0x3d9c6444	0.07636312
234	0xbc70db9c	-0.014700796
235	0x3c8367e3	0.016040748
236	0x3da2b38f	0.07944404
237	0xbe2aa9bc	-0.16666311
238	0xbe0f458a	-0.13991371
239	0x3dded6db	0.10880824
240	0x3e3a7343	0.18208031
241	0x3d2f093f	0.042733427
242	0x3dae2760	0.08503604
243	0x3da06f1a	0.07833691
244	0xbb964686	-0.004586044
245	0xbc7d201b	-0.015449549
246	0x3e06306f	0.13104413
247	0x3e25c3b3	0.16187935
248	0xbd836585	-0.06415848
249	0xbd1b674a	-0.0379403
250	0xbcb0c1f0	-0.021576852
251	0xbe1829e6	-0.14859733
252	0xbd3b1c83	-0.045681488
253	0xbd947dd6	-0.07250564
254	0x3dc3db65	0.095633306
255	0xbcc51fc7	-0.024063004

feature.9.bias f4 [256]
0	0x3d455ef5	0.04818626
1	0xbba95259	-0.0051672873
2	0xbc74f380	-0.014950633
3	0x3d30224b	0.043001454
4	0x3cfda381	0.030961754
5	0xbc31a91d	-0.010843542
6	0x3c016dcd	0.007899714
7	0xbd4a3dbb	-0.049375277
8	0x3c086edd	0.008327213
9	0x3cd3eb09	0.02586891
10	0xbd0050ae	-0.031326942
11	0xbc1930a5	-0.009349977
12	0xbb1fd387	-0.0024387555
13	0xbd013e2e	-0.03155344
14	0xbe1298bc	-0.14316076
15	0x3d2cd5ab	0.042195957
16	0xbd52548d	-0.051350165
17	0xbd858dcb	-0.065211855
18	0x3c82c848	0.015964642
19	0xbb9051ce	-0.004404283
20	0x3b5a5824	0.0033316696
21	0xbdfd2485	-0.12360481
22	0xbd9afbf1	-0.07567585
23	0xbb0f8e5f	-0.0021904928
24	0xb936ad2e	-0.00017421387
25	0x3bedb900	0.0072547197
26	0x3c7f242f	0.015572592
27	0x3d19b112	0.037522383
28	0xbd31e20d	-0.04342847
29	0x3cb99523	0.022654122
30	0xbc8dc4f6	-0.017305832
31	0xbb533aba	-0.0032231049
32	0x3cd98a11	0.026555093
33	0x3c7fec07	0.015620238
34	0x3bab75e9	0.005232562
35	0xbd356f42	-0.044295557
36	0xb99c690a	-0.000298329
37	0xbcab58e9	-0.02091642
38	0x3c3de857	0.011591039
39	0xbe082475	-0.13295157
40	0x3b76ad3c	0.0037639877
41	0xbe19d6bc	-0.15023321
42	0x3a2e41ec	0.00066473964
43	0x3bb717d6	0.0055875583
44	0xbcb60c53	-0.022222674
45	0x3c01b9be	0.00791782
46	0x3c7a0585	0.015260105
47	0xbe100726	-0.14065227
48	0xbbb73503	-0.0055910363
49	0xbc6f58f5	-0.014608611
50	0x3c0d85fc	0.008637901
51	0xbc040b39	-0.008059316
52	0xbcac1eaf	-0.021010725
53	0xbdf5d58a	-0.1200362
54	0xbc2fcd3f	-0.010730087
55	0xbc7493ea	-0.014927844
56	0x3b7f0394	0.0038912045
57	0x3cb51204	0.022103317
58	0xbd71f364	-0.059070006
59	0xbce4e21c	-0.027939849
60	0xbd9e9471	-0.07743157
61	0xbdbdc915	-0.09266869
62	0xbb9a31e0	-0.0047056526
63	0xbc022f72	-0.007945882
64	0x3bdc3b3f	0.00672093
65	0xbcf7f7ef	-0.030269591
66	0xbd8538f9	-0.06505007
67	0xbcd39ffe	-0.025833126
68	0x3c8446df	0.016147075
69	0x3c403b5f	0.011732905
70	0x3cb81745	0.022472033
71	0xbc206015	-0.009788533
72	0xbe0120a6	-0.1261011
73	0x3d08669d	0.033300985
74	0xbd2b3cd1	-0.041806046
75	0xbbaad399	-0.0052132127
76	0x3b56f6b4	0.0032800855
77	0xbc7bc673	-0.015367138
78	0xbc9269c5	-0.0178727
79	0xbc85b805	-0.016323099
80	0xbbeb3b22	-0.00717868
81	0xbe059879	-0.13046445
82	0xbd2a00de	-0.041504733
83	0xbda09045	-0.07840017
84	0xbd2e6441	-0.04257608
85	0x3c6dd446	0.014515942
86	0x3d11a632	0.035558887
87	0xbbc6dc54	-0.0060687456
88	0x3adf6c5d	0.0017045845
89	0xbcd7067e	-0.026248213
90	0x3b759fd9	0.003747931
91	0xbc01c502	-0.0079205055
92	0xbd281fff	-0.04104614
93	0x3ca27937	0.01983319
94	0xbd622048	-0.055206567
95	0xbc86f70b	-0.016475221
96	0xbccb6fbd	-0.024833554
97	0xbc8b172a	-0.016978819
98	0xbe24912e	-0.16071007
99	0x3c8038fb	0.01565217
100	0x3b06e3b8	0.0020582508
101	0xbc45d4d1	-0.012074665
102	0x3c564cfe	0.01307988
103	0xbcc9b04a	-0.024620194
104	0xbcc13448	-0.0235845
105	0xbcc402e2	-0.023927156
106	0xbde4f6c7	-0.111798815
107	0xbe5e0cfc	-0.2168464
108	0x3c854b37	0.016271217
109	0xbcbc4f12	-0.022986922
110	0x3c88adbe	0.01668441
111	0xbcfc7f7d	-0.03082251
112	0xbd28c934	-0.041207507
113	0x3ce61577	0.028086407
114	0x3ad53b94	0.0016268366
115	0x3bf204ac	0.007385811
116	0xbd05bce5	-0.032650847
117	0x3bdaed7a	0.0066811414
118	0x3d40a1fa	0.047029473
119	0xbd274495	-0.04083689
120	0x3cd0da99	0.02549486
121	0xbc3cd8b8	-0.011526279
122	0xbced02ee	-0.028932061
123	0xbb50ff38	-0.0031890403
124	0x3daed76e	0.08537184
125	0x3ce39730	0.027782053
126	0x3d202be0	0.039104342
127	0xbd1a034f	-0.03760081
128	0xbd4a084d	-0.049324322
129	0x3c0e1f9e	0.00867453
130	0x3d00f628	0.031484753
131	0xbd0d82e2	-0.034548648
132	0xbc2feeea	-0.010738114
133	0xbd25d5be	-0.040487044
134	0x3c9321f9	0.017960535
135	0xbdc16247	-0.09442573
136	0xbc78935c	-0.015171852
137	0x3a2ea3c3	0.00066619756
138	0xbad3d1c2	-0.0016160535
139	0x3b9e465b	0.0048301644
140	0x3d245435	0.04011937
141	0xbdb06517	-0.08613031
142	0xbd675d35	-0.056485374
143	0xbc308eb8	-0.010776214
144	0x3d169d51	0.036771122
145	0xbd4c2c38	-0.049846858
146	0xbc3557ce	-0.011068298
147	0x3b5622e7	0.0032674612
148	0xbd220402	-0.039554603
149	0xbc379755	-0.011205514
150	0x3c27e0af	0.01024644
151	0xbc994fa0	-0.018714726
152	0xbd84ee2c	-0.0649074
153	0xbdc404f2	-0.09571256
154	0x3d6f05a3	0.058354985
155	0xbbcc4716	-0.00623406
156	0x3d463ed7	0.048399772
157	0xbd8e101c	-0.06936666
158	0xbc9d7cb2	-0.019224498
159	0x3cb31069	0.02185841
160	0x3c368981	0.011141182
161	0x3cbb7e4f	0.022887377
162	0x3c9dad7d	0.019247765
163	0xbc2e38c6	-0.010633653
164	0xbd45696d	-0.048196245
165	0x3bc37037	0.005964305
166	0xbe25b8f0	-0.1618383
167	0xbb68d883	-0.0035529442
168	0x3d4489fe	0.047983162
169	0x38d3dc35	0.00010102281
170	0xbbf1395a	-0.007361573
171	0x3bd3d5fc	0.006464718
172	0xbcb31ece	-0.021865275
173	0x3d46bcfa	0.048520066
174	0x3c14fbeb	0.009093265
175	0x3bce42ae	0.00629457
176	0xbac1ed63	-0.0014795478
177	0x3c06b0c2	0.008220853
178	0xbc58e5ae	-0.013238354
179	0x3ce4704e	0.027885582
180	0x3c096e0d	0.008388055
181	0xbc2593b9	-0.010106021
182	0x3b81993d	0.003955035
183	0x3c17f1c3	0.009273949
184	0xbe090abd	-0.13383003
185	0xbb552404	-0.0032522688
186	0x3bba5e08	0.005687479
187	0x3d677102	0.056504257
188	0x3cb98614	0.022646941
189	0xbbf23de6	-0.007392633
190	0xbd109f83	-0.035308372
191	0x3d4b6c91	0.049664084
192	0xbe1b1b45	-0.15147121
193	0x3cbe2fe4	0.023216195
194	0xbb265d94	-0.0025385367
195	0x3bc761d2	0.006084659
196	0x3cb2b599	0.021815108
197	0x3d137bca	0.036006726
198	0xbe1871ea	-0.14887205
199	0xbc4dde81	-0.012565256
200	0xbc40b78b	-0.01176251
201	0xbc7f1cdd	-0.015570846
202	0x3c99b301	0.018762114
203	0x3d402329	0.04690853
204	0x3c10a404	0.008828167
205	0x3bb04479	0.0053792563
206	0xbccaa62c	-0.02473744
207	0xbc539107	-0.012912995
208	0x3cc615a6	0.024180245
209	0xbd3615ab	-0.044454258
210	0xbc384662	-0.011247249
211	0x3cc6e171	0.02427742
212	0xbde2d11f	-0.11075043
213	0x3cedc1af	0.02902302
214	0xbc9a9e9c	-0.018874459
215	0xbd1ed69d	-0.03877889
216	0x3cc3c4d6	0.02389757
217	0xbcea3f36	-0.028594594
218	0x3cc0cda9	0.023535566
219	0xbbb32219	-0.0054667112
220	0x3c1d3a81	0.009596468
221	0xbde0f2ba	-0.109837964
222	0xbcaf404f	-0.02139297
223	0xbaa18940	-0.0012324229
224	0xbda1325d	-0.07870934
225	0x3d2734f0	0.04082197
226	0x3cbc32c7	0.022973431
227	0x3b23a09b	0.0024967554
228	0x3baf6ab3	0.0053532957
229	0x3d55c3db	0.052188735
230	0x3d0b5f2e	0.034026317
231	0xbce1c9d5	-0.027562061
232	0x3c609dcb	0.013709496
233	0xbd420b0b	-0.047373813
234	0xbcf08d9f	-0.029364405
235	0x3bc5497d	0.0060207234
236	0x3c9ae67b	0.01890873
237	0xbb40e64b	-0.002943414
238	0x3bb75e6b	0.0055959723
239	0x3b65e683	0.0035080023
240	0x3c05eccc	0.008174133
241	0xbac8cb4a	-0.0015319374
242	0x3bf5293f	0.0074817236
243	0xbbee29b3	-0.0072681545
244	0x3be252ca	0.006906842
245	0x3cc0c9ac	0.023533665
246	0x3c410fc0	0.01178354
247	0xbd886e06	-0.0666161
248	0xbc94d41c	-0.018167548
249	0x3d998232	0.07495536
250	0x3c91ea59	0.017811941
251	0x3b48512b	0.0030565958
252	0x3c12d28e	0.008961333
253	0xbd0045a9	-0.031316433
254	0x3cd51aa3	0.026013678
255	0x3c877629	0.016535835
