my_way_home/models/my_way_home.model (torch_old, 683085 bytes, 16 tensors)

feature.0.weight f4 [32, 4, 3, 3]
000000 d1 7d 82 3e 2c f5 b8 bd 38 fa 8a be 59 ea 24 3d
       0.25486615 -0.09031138 -0.27144027 0.040262554
000010 4c 3c 63 3d f0 fc 0a 3d a0 50 6f be 7c fe 34 3e
       0.055477425 0.033932626 -0.233706 0.17675203
000020 0f 27 76 be c8 da d3 3d b1 c1 8e be f4 e3 45 3d
       -0.24038337 0.103444636 -0.2788215 0.048313096
000030 23 1f 0a bf 68 1f cb 3e 44 52 95 3d 32 f2 ae 3b
       -0.5395376 0.396724 0.072910815 0.0053389305
000040 e3 21 87 3c 91 dd 5c 3b dc 1d df bd 32 8a e1 3d
       0.01649565 0.00337014 -0.10894367 0.11012687
000050 e3 92 ad 3e 7c ed 30 be 70 2d 70 3e c6 2d ef bc
       0.33901128 -0.17278093 0.23454833 -0.029196631
000060 66 c5 95 3e 44 ea a4 3e 67 51 d1 3d 2a 0f b9 bd
       0.29252166 0.3220998 0.102206044 -0.090360954
000070 08 ac 8f 3e 6f 73 ac 3e 2e c0 78 3e 30 03 1c 3e
       0.28060937 0.3368182 0.2429206 0.15235591
000080 8c 28 59 3f e4 39 af 3e d1 74 5c 3d ff c3 cb 3e
       0.84827495 0.34223855 0.053822342 0.3979797
000090 7e 64 16 3e 3e 6c 9a bd b2 b8 a0 3e 30 50 7c 3e
       0.14686772 -0.07540177 0.3139091 0.24639964
0000a0 31 47 81 3e 42 c0 34 be 04 b6 96 3b 41 55 1d 3d
       0.25249627 -0.17651466 0.0045993347 0.038411383
0000b0 04 f7 c3 bc ca 2f ac 3e d2 2a 7f be e8 ee 91 be
       -0.023921497 0.3363021 -0.24918678 -0.28502584
0000c0 3c 0b 51 3d 6f 9c d6 3e f7 b1 32 3e fd 0c 84 be
       0.051036105 0.41916224 0.174507 -0.2579116
0000d0 bb f0 41 3e f1 3d 89 3c 74 55 66 3e 8f 1d 2a be
       0.18939488 0.016753169 0.22493535 -0.16612838
0000e0 ff 74 a0 bd b0 16 92 bd 0a 8b 62 3e d4 81 5f be
       -0.07834815 -0.071332335 0.22123352 -0.21826869
0000f0 44 45 54 3c 5e a0 42 bf 32 45 f3 bd 25 11 9b be
       0.012955967 -0.7602595 -0.11878432 -0.30286518
000100 9d 9e 51 3e 35 64 41 3d 5e cf 98 3e 8a ca f8 3e
       0.20470662 0.047214705 0.2984571 0.48592025
000110 26 63 7d bd a5 71 08 be 0a 1d 9c bc 6b 5a a1 3e
       -0.061862133 -0.13324602 -0.019056816 0.31514296
000120 6d 4d 1f 3e 1d 78 75 3e 68 c6 0f 3d 65 65 08 3e
       0.1555688 0.23971601 0.035101324 0.13319929
000130 37 75 0c be 0b e0 83 be 6a 51 09 bf 30 52 c5 be
       -0.13716589 -0.2575687 -0.53639853 -0.38539267
000140 07 08 95 be cb 13 ac be 3b e5 ad bd 46 e2 7f 3e
       -0.29107687 -0.3360885 -0.08490988 0.2498866
000150 1d b8 6a 3e ad 73 60 3e 7c 73 02 bc cd 0e 43 3e
       0.22921796 0.21919127 -0.007962104 0.19048615
000160 7e 1f 88 3e 71 12 15 3e 85 7b 5c 3d 0c 68 02 3f
       0.26586527 0.14557816 0.053828735 0.5094001
000170 37 4b 9e 3e b5 f7 0a 3c eb b5 c2 bd 98 99 37 3e
       0.3091676 0.0084819095 -0.09507354 0.17929685
000180 cb b5 cb bd b8 1c 06 3c 06 f0 2a 3e 97 88 31 be
       -0.09946784 0.008185558 0.16693124 -0.17337261
000190 53 92 05 3f 85 18 8a 3e a5 68 83 be c0 9a c8 3d
       0.521764 0.26971832 -0.25665775 0.09795141
0001a0 01 6a b3 be 64 31 70 bd d7 86 23 3e d2 0b 03 3e
       -0.35041812 -0.058640853 0.15969406 0.12797478
0001b0 18 ee 65 be 03 ef f4 be 25 51 a6 bc 42 0a 94 3d
       -0.22454107 -0.478386 -0.020302365 0.07228519
0001c0 12 45 a3 be fe 77 29 bd 42 a3 5f 3e 1c 3e 9c 3e
       -0.31888634 -0.0413742 0.21839622 0.30516136
0001d0 0a ab a3 3d dc 42 c4 bc c7 cb 9e bc be 5c d6 3d
       0.079916075 -0.023957662 -0.019384278 0.10466908
0001e0 ec 05 4c 3e ee 09 dc 3d 5c 1a 04 3e 25 ff 4a 3e
       0.19924134 0.107440814 0.1290068 0.19823892
0001f0 d4 4d b7 3e dc 04 0a 3f 59 b8 1d bf 7c f1 7c 3c
       0.35801566 0.53913665 -0.6160942 0.015438434
000200 be ec 7d bd 70 ce 14 be 40 35 c0 3e 3a 6c a1 3e
       -0.061993353 -0.14531875 0.37540627 0.31527883
000210 78 d7 d7 3d 9d a2 93 3e 7b 41 12 be 51 b4 ef be
       0.10539144 0.28835002 -0.14282791 -0.46817258
000220 0f a9 69 3d ca 5b 63 be 31 79 aa 3e d7 31 05 bc
       0.057045992 -0.22202983 0.33295587 -0.0081295585
000230 f8 74 ad bd 14 d0 74 bc b5 d8 63 3e ac 15 55 3e
       -0.08469576 -0.014942188 0.22250636 0.20809048
000240 d5 7a ab 3d ee c7 5b be 37 a1 89 be 49 6c 3a 3e
       0.08373038 -0.21462986 -0.2688081 0.1820537
000250 5e 26 6f bd 9d e1 8d 3e f4 f3 81 3e f2 1d 70 3d
       -0.0583862 0.27711192 0.25381434 0.058622308
000260 3f 81 61 3e 8d 5e 96 bc 36 21 dd 3e 38 17 14 3e
       0.2202196 -0.018355632 0.431894 0.14461982
000270 d9 f9 0f be c3 75 04 3e f7 91 c7 bd 2d 15 a1 3d
       -0.14060153 0.12935548 -0.097446375 0.07865367
000280 f4 1e 37 be 6a e7 a4 3e 8e f5 18 3f 68 24 1e 3e
       -0.17882901 0.32207805 0.59749687 0.15443575
000290 0e 06 db 3e f6 c2 8f be e8 0e 7c 3d d0 6d ac 3b
       0.42778057 -0.2807843 0.061537653 0.005262114
0002a0 aa 3a 2d 3d f6 69 31 bd 3d 00 4a 3e 5e 87 53 3e
       0.042292275 -0.043313943 0.19726653 0.20657107
0002b0 2b 55 2e be 72 ff b9 3e 82 6f a0 be 90 89 d1 be
       -0.17024677 0.36327702 -0.31335074 -0.40925264
0002c0 a6 b2 ea be a1 d6 4f be 02 21 8f be 8f 8a 51 3e
       -0.45839423 -0.20296718 -0.2795487 0.20463012
0002d0 7d b3 90 3e 7e c9 74 3e be ac 39 be 99 7f ad be
       0.2826194 0.23904988 -0.18132302 -0.33886412
0002e0 09 5c 91 be 19 82 b3 3e e1 28 86 be e1 31 a2 3e
       -0.2839053 0.35060194 -0.26203063 0.3167868
0002f0 dd c6 be 3e af b0 f8 bb 81 72 87 be 44 4c 99 3e
       0.37261096 -0.0075894217 -0.26454547 0.29941
000300 f7 1f 73 3c d8 71 9b 3d 01 40 fe 3d 81 8f ce be
       0.014839164 0.07590073 0.124145515 -0.4034386
000310 3d 33 82 3c c4 74 84 3e 00 0c b4 be 03 3e f6 bd
       0.015893573 0.25870335 -0.35165405 -0.120235465
000320 82 fd 87 bd 22 8b 88 be 35 d2 21 bd cd b9 2a 3e
       -0.0664015 -0.2666865 -0.03950711 0.1667244
000330 2f 04 36 be be 54 d2 be ca 9d a0 3e 22 7c 99 3e
       -0.17775033 -0.41080278 0.31370384 0.29977518
000340 e3 7b 7b 3e 8b f2 1b be d4 05 29 be 82 49 5b bd
       0.24558978 -0.15229242 -0.1650613 -0.0535369
000350 36 c1 21 be b2 6b b3 3c 80 92 d8 be d6 01 73 be
       -0.1579636 0.021901939 -0.4229927 -0.23731169
000360 4c 35 a4 3e 66 a1 5a 3e 09 7e 91 be bd bf 0d 3e
       0.32071912 0.21350631 -0.2841647 0.13842674
000370 cf df bb 3d d3 80 5e bd ce 02 bc 3d d4 42 a4 be
       0.091735475 -0.054322075 0.091802225 -0.32082236
000380 fc 3d 81 be 29 15 7b 3d 1e f5 3c be f2 05 07 3f
       -0.25242603 0.061299477 -0.1845288 0.52743447
000390 a4 3e 81 3d 0f ee ae be 25 f8 49 3e 2d 76 fb bc
       0.06310776 -0.34166 0.19723566 -0.030695999
0003a0 bf 2b 2b 3e 30 37 19 3e 60 be 03 3e 5e 33 c9 b9
       0.16715907 0.14962459 0.12865591 -0.0003837598
0003b0 46 c8 14 bd c2 d5 a4 3e 4e fb 45 3e 96 68 ce bc
       -0.036323808 0.32194334 0.19334146 -0.025196355
0003c0 a6 66 ef 3d 10 e8 bb bc ee 8b e0 be 44 53 d8 3d
       0.116895005 -0.022937804 -0.43856758 0.10562757
0003d0 9e 6e b0 be 6d 33 54 3e 77 2a e4 3e 22 0e 89 be
       -0.34459394 0.20722742 0.44563648 -0.26768595
0003e0 88 f6 00 be fd 2e 71 bd 85 65 48 bf 96 88 39 be
       -0.12594044 -0.058882702 -0.78279907 -0.1811851
0003f0 5d ce 8a 3e c3 aa 07 bd b2 38 66 3e a1 fe 9c 3e
       0.27110568 -0.033121835 0.22482565 0.30663016

feature.0.bias f4 [32]
000000 de cd 6f be e7 95 ea bd 6d 6e fb bd 25 7f f4 bd
       -0.23418376 -0.11454373 -0.122769214 -0.119383134
000010 40 c2 06 be 99 ca e1 3d 0f 37 6c 3d 4e 85 1d be
       -0.13160038 0.110249706 0.057669695 -0.15382883
000020 45 60 37 3e dd 90 1b be 8d 54 05 be 18 59 08 be
       0.17907818 -0.1519198 -0.13020535 -0.13315237
000030 36 d5 fe bd cf ed 12 be d4 d8 cb bd 09 f1 b5 bd
       -0.124430105 -0.1434853 -0.09953466 -0.088838644
000040 06 9b a3 bc 0e 72 c7 bd 6e 17 8c 3a b1 2d 9f bc
       -0.019971382 -0.09738551 0.0010688135 -0.019430967
000050 7e fa ab bc 6b 33 e9 3d 6e 5e 3d be ce 07 86 3e
       -0.020993467 0.1138676 -0.18493053 0.2617783
000060 4c 59 48 3e 39 0a 14 be b8 22 06 3e a0 d9 4b be
       0.19565314 -0.14457025 0.13099182 -0.19907236
000070 be 47 19 bd 0c 54 e1 3d bd d2 17 be 12 39 d9 3c
       -0.037421934 0.11002359 -0.14826484 0.026516471

feature.2.weight f4 [32, 32, 3, 3]
000000 9b 39 29 be 35 f4 6b 3d e8 f8 64 3d bf 2a 08 3e
       -0.16525881 0.05760594 0.055901438 0.13297556
000010 c0 33 37 bd df 1a 85 bc 42 c5 d7 3c c9 f0 8d bd
       -0.044727087 -0.016248165 0.026339177 -0.06930692
000020 1c 7f 73 3c ed 49 15 be 1d 3b 29 bc 7a 2f de 3d
       0.014861848 -0.14578982 -0.010329035 0.10848899
000030 1b b8 3b be 48 93 83 bc 2c bb 2d be 09 05 b2 3c
       -0.1833195 -0.01606144 -0.16965932 0.021730917
000040 da f4 89 3d 8e 24 c6 3d 1c ba d8 3d 7a a1 56 bd
       0.06736155 0.09674941 0.105823725 -0.05240009
000050 27 f0 01 be 8a 32 32 3b 72 e2 97 ba 11 e2 85 bc
       -0.12689267 0.0027190768 -0.0011587872 -0.016343148
000060 cf b6 eb 3d f2 7b 30 3e 1d f2 06 3e 99 38 05 3e
       0.11509477 0.17234781 0.13178296 0.13009872
000070 97 59 3f 3d 1f fb d1 3c 90 a0 78 3c fb d9 1d bd
       0.0467163 0.02563244 0.015175 -0.03853796
000080 93 64 76 bd 90 19 87 3e b4 8c ad bb 14 ae ca bc
       -0.06015451 0.2638669 -0.005296314 -0.02474121
000090 59 7b ad 3d 6f ca b6 bc 4b 88 ea bc b6 89 a2 3d
       0.08470792 -0.022313325 -0.028629443 0.079364225
0000a0 7d 4b ea 3d 8a 8b 5b 3e 6b a2 14 3d 25 6f 4b be
       0.114401795 0.21439949 0.036287706 -0.19866617
0000b0 50 1b 68 3d 9e ad 9f bd 1c d0 09 bc de f6 d5 3d
       0.056666672 -0.07796787 -0.008411434 0.10447477
0000c0 17 2b 84 3d 2b 07 10 3d 2d be f0 bc 9e 2c d6 bd
       0.06453531 0.035163086 -0.029387558 -0.10457729
0000d0 86 27 1f be ec 75 ad 3d d7 99 24 be 67 5a 0b be
       -0.1554242 0.084697574 -0.1607431 -0.13608705
0000e0 15 8f c8 3c 2b fd 7a bc 5c 9f b9 bd 59 23 44 3e
       0.02448229 -0.015319149 -0.090635985 0.19154109
0000f0 ab 95 6b bc 0a 22 86 bd f4 93 3e 3e 01 a4 33 3d
       -0.014378945 -0.06549461 0.18611127 0.04385758
000100 9a bc 41 bc 8e 8a eb 3d a8 aa 10 3e 02 82 09 bd
       -0.011824751 0.115010366 0.141276 -0.03357125
000110 cb 88 f7 bd c0 28 8a 3d 82 75 b3 3d db b7 e5 bc
       -0.12086638 0.06746054 0.08762647 -0.02804177
000120 73 73 4a 3e 26 00 c6 bd 0c 49 9d 3d a7 7f ca 3d
       0.19770603 -0.09667997 0.07679948 0.09887629
000130 73 91 c3 3d 89 bd 1a 3e c2 66 29 3e 9d 26 15 be
       0.095492266 0.15111364 0.16543105 -0.14565511
000140 e2 d7 ac bd ea 22 47 bc aa c7 85 3d ba b1 14 3e
       -0.08439614 -0.01215432 0.065322235 0.14520922
000150 4a d4 c9 bc 94 96 02 bd 49 cc 9b bd a4 56 90 bd
       -0.02463736 -0.031881884 -0.07607324 -0.070477754
000160 79 17 6c 3d b5 1b 5f bd b8 2d 0c bd 06 6f bf 3d
       0.057639573 -0.054469783 -0.03422329 0.09347348
000170 07 f4 64 3e b7 16 1d bd c0 72 22 3e b5 5c 48 bd
       0.22358714 -0.03835174 0.15864086 -0.048916537
000180 26 83 8a bc c1 60 06 3e 32 57 d9 3a 82 7e 77 bd
       -0.01690824 0.13122846 0.0016581772 -0.06042338
000190 73 5a 19 bd ea 17 42 be 7b ba 41 be 73 a0 9d bb
       -0.037439775 -0.18954435 -0.18918793 -0.004810387
0001a0 c9 c4 20 bf 80 0f 92 bb 0b 5d 01 3e f7 82 bc bc
       -0.6280027 -0.004457414 0.1263315 -0.023011668
0001b0 52 ca 21 3d 26 68 c4 3d 1a 03 85 3c 22 d3 56 bd
       0.03949959 0.09590177 0.01623683 -0.052447446
0001c0 24 88 a7 be a4 43 67 be cf db 91 bc 1a 19 d3 3d
       -0.32721055 -0.22584397 -0.017805008 0.10307522
0001d0 9e 4b 00 3e 4e 3c 49 3d 02 5f 0d 3e f6 c8 46 bb
       0.12528846 0.049129777 0.13805774 -0.0030332184
0001e0 27 76 37 bb 37 57 bb 3d c3 24 99 3d d7 89 11 bd
       -0.0027994008 0.09147494 0.07477715 -0.035531845
0001f0 be 45 a1 3d 59 40 8b 3c 7c c8 82 3d df 47 82 bd
       0.078746304 0.016998457 0.063858956 -0.063613646
000200 c1 88 40 be ce 3f a4 bc aa 6b e8 3c 1e 58 c4 3c
       -0.18802167 -0.020049956 0.02837165 0.023967799
000210 ed cf 1f bd df 8b 97 3d b1 08 6d 3d 1d b9 38 be
       -0.039016653 0.07399725 0.057869617 -0.18039365
000220 16 42 98 be e1 40 e0 3b 0d 22 00 be 71 b8 3c be
       -0.2973792 0.0068436717 -0.1251299 -0.18429734
000230 4e 99 44 be 9c eb ce bd 93 f8 d0 3d 74 4f 23 3e
       -0.19199106 -0.10103533 0.10203662 0.15948278
000240 34 55 3e bd 20 a7 05 3e f4 56 b4 bd cc 10 95 bb
       -0.046467975 0.13052034 -0.088056475 -0.0045491215
000250 91 c9 46 3e 7d 2d a6 bd 0a 42 04 3e f5 fe 6b 3e
       0.19412829 -0.08114145 0.12915817 0.23046477
000260 42 37 7c bd ea 05 bc bd 0b b5 50 3d 68 8f 78 3c
       -0.061576135 -0.091808155 0.050953906 0.015170909
000270 b2 62 40 be d2 89 1d bd cd 24 00 3e 04 54 fa bd
       -0.1878765 -0.038461514 0.12514038 -0.12223056
000280 54 46 5a bd 33 22 14 bd da 87 1a 3c 2b 1f 46 bd
       -0.053289726 -0.036165427 0.009431804 -0.048369568
000290 ec 13 82 bd b2 2d de 3d c1 1c bf 3c 7a d8 ca 3d
       -0.06351456 0.108485594 0.02332914 0.09904571
0002a0 e0 0e ab 3c 7d ec 05 3e 67 f0 c9 3d e3 ac 1d 3b
       0.020881116 0.13078494 0.09860306 0.0024059347
0002b0 ad ef 8c 3d 45 26 b8 bc ec 21 f2 3d 87 48 27 bb
       0.06881652 -0.022479186 0.11822876 -0.0025525407
0002c0 04 87 37 3e 70 c0 4b 3e 4a 9a d5 bd c3 47 e8 3d
       0.17922598 0.19897628 -0.10429819 0.113418125
0002d0 9e 75 9e 3d 92 b1 c6 3d 3b fc 05 3e 1c d3 9a 3c
       0.077372774 0.097018376 0.130845 0.018899493
0002e0 38 8d 72 3b 64 9f e3 3d 43 4e 14 bc 3a 4c 03 be
       0.0037010442 0.11114386 -0.009051862 -0.12822047
0002f0 ec 50 a4 3d a3 7b 81 bd d3 c7 4d be e9 12 77 3d
       0.08023247 -0.0632241 -0.20095758 0.06032077
000300 d5 4a ce bc 77 d7 6a bd 19 9d a4 3e c7 90 62 3d
       -0.025182167 -0.05733439 0.32151106 0.05531385
000310 82 01 bd bd cb 0c 14 3e 14 a2 f9 3d 80 e2 b8 3c
       -0.09228803 0.14458005 0.12189117 0.022568941
000320 c2 45 ca bc 99 2a 1f be 23 61 06 be 3c 65 e9 3d
       -0.024691466 -0.15543593 -0.13122992 0.11396262
000330 22 1e f7 bd 79 21 e4 bc 29 f0 7c 3e 92 20 0f 3e
       -0.12066294 -0.027847992 0.24700989 0.13977268
000340 97 48 bc 3d 16 68 5c 3b 82 4e 2e bb d7 c4 04 3e
       0.09193533 0.0033631376 -0.0026597087 0.12965713
000350 1a 83 8f 3d cf a1 64 3d 7f 82 22 bd 03 6e f6 3d
       0.070074275 0.055818375 -0.039675232 0.12032702
000360 79 fa 22 bd 41 4a 05 bd f2 07 20 3e 4b 94 37 be
       -0.03978965 -0.032541517 0.15628031 -0.17927663
000370 ca de 42 bd e5 02 82 3e d2 87 20 be 34 bd ab bb
       -0.04757575 0.25392833 -0.15676811 -0.0052410606
000380 97 b2 2f bd 08 24 35 3e bd 09 4c 3d cf 14 b9 bc
       -0.042894926 0.17689526 0.049813975 -0.02259293
000390 90 34 3d 3d 52 c3 82 b8 d4 a5 2f be 77 c3 3e bd
       0.046192706 -6.235264e-05 -0.17153102 -0.04657313
0003a0 7e c9 80 bb 91 80 db 3c ea bc 14 3e 54 78 fc bd
       -0.0039302697 0.026794704 0.1452519 -0.12327638
0003b0 9b 0a 45 bd fb e9 eb 3d 51 c2 5a 39 79 ec 52 3e
       -0.048105817 0.115192376 0.00020862489 0.2059802
0003c0 06 3e a1 bc 6f ab 66 bd ec 85 c2 bc 08 74 94 3d
       -0.019682895 -0.056315836 -0.0237455 0.07248694
0003d0 0d 54 e2 3c bb 2e 81 3d ab 0e ef bb 4d 70 3d 3d
       0.02762797 0.06307741 -0.0072954497 0.046249676
0003e0 f4 62 11 be 5f 95 b8 3d 09 c6 8b 3d c2 9f 08 3e
       -0.14197904 0.09012865 0.068248816 0.13342193
0003f0 b0 aa 26 be 47 c2 0e be 90 33 5a bd 4c 44 b9 bd
       -0.1627605 -0.13941298 -0.05327183 -0.0904623

feature.2.bias f4 [32]
000000 a3 2d e6 bc d4 d4 2b bc 36 21 57 bc be df af bd
       -0.028097933 -0.010487754 -0.013130477 -0.08587597
000010 75 5c 99 bd 40 4c c2 3c d2 c1 93 bd 86 00 9c bd
       -0.07488338 0.023718 -0.07214703 -0.07617287
000020 1d 08 9c bd 45 f1 a7 bd 60 9f 0a be 88 72 9d bd
       -0.07618735 -0.082003154 -0.13537359 -0.07687861
000030 4d 4a 99 be 5e 59 67 3c 5a 0e 08 3e 64 81 3b bd
       -0.299395 0.014120428 0.13286725 -0.045777693
000040 66 4d 0a be 31 b2 97 bd ac 30 3c 3c dd 14 e7 3d
       -0.13506088 -0.07407034 0.011486214 0.11283276
000050 8e ad 05 be 22 5a 6e 3d 5f b7 33 ba 10 0f 83 3c
       -0.13054487 0.058191426 -0.00068556325 0.015998393
000060 d9 36 2b be f2 6a 3c 3e bd 4a 17 3e e1 f5 1b be
       -0.16720141 0.18400171 0.14774604 -0.15230514
000070 81 46 67 be 50 fb 9a bc 25 ba 0f bf 36 e6 a4 bc
       -0.22585489 -0.018918663 -0.5614341 -0.020129304

feature.4.weight f4 [32, 32, 3, 3]
000000 3f bc 0a bd 35 94 bf bd 46 be 74 bd c0 7e ce 3d
       -0.03387093 -0.0935444 -0.05975177 0.100827694
000010 19 4d 07 bc 9b 56 f8 ba ed 27 ed bc cc 3a 5e be
       -0.008258128 -0.0018946709 -0.028949702 -0.21702117
000020 ef 00 0a be d1 4f 1e 3c 5d 28 53 bd 48 6f 1d be
       -0.13476919 0.009662584 -0.051552165 -0.15374482
000030 87 72 e9 3d 50 90 8e 3d 75 86 36 bd 4e 2a aa 3d
       0.113987975 0.06961119 -0.044561822 0.0830885
000040 45 d0 cc 3d c5 ab 0e 3d d2 fe 71 3c 75 17 16 3d
       0.10000662 0.03483178 0.014770227 0.036643464
000050 f8 11 f5 3b 3e 16 9e 3c 6c 9d bf 3b dc 62 fa 3d
       0.0074789487 0.019297715 0.0058476236 0.12225887
000060 b4 d2 48 bb d5 1e 9d bd f9 36 32 bc a1 43 92 bc
       -0.0030643167 -0.07671896 -0.010877364 -0.017854514
000070 58 49 dc bd d9 80 25 bd 3b 86 83 3c 96 c9 51 be
       -0.10756177 -0.04040608 0.016055217 -0.20487055
000080 43 dd 3c be bb 22 89 3d b1 e7 9b 3c 70 82 33 3d
       -0.1844378 0.066960774 0.019031378 0.043825567
000090 cc ba 33 3d 96 ec b4 bd 04 82 16 3c 9b bc 87 bd
       0.043879315 -0.08834188 0.009186272 -0.066277705
0000a0 34 61 b5 3d b0 46 c3 3a 08 97 3a be 03 24 ff bd
       0.08856431 0.0014898386 -0.18221676 -0.124580406
0000b0 49 ff f0 bd ec c8 8d bc 7a ab 31 bd 54 d0 4b be
       -0.11767442 -0.017307721 -0.043376423 -0.1990369
0000c0 7c 8e 0b be d7 21 15 be 6c 7e 9b be 9b 92 97 bd
       -0.13628572 -0.1456369 -0.3036989 -0.0740101
0000d0 e7 e0 a8 bd 4c d1 38 3e 6f 8f b1 3d 77 5e f6 bd
       -0.08246022 0.1804859 0.08669936 -0.120297365
0000e0 9e 28 07 be 63 d5 4f 3d 44 8c b6 bc 08 f5 0c 3e
       -0.13199088 0.05074061 -0.02228368 0.13765347
0000f0 f2 2f 38 be 7e ab 37 3d 38 7d 73 bd 96 40 fd bd
       -0.1798704 0.044841282 -0.05944559 -0.123658344
000100 28 e6 a8 3c 33 08 b6 bd 48 e3 02 3e b7 5d 73 3c
       0.02061756 -0.088882826 0.12782013 0.014853886
000110 cd 11 8f b9 bd 68 aa bd f6 4f 17 3d 9f 1d 03 bc
       -0.00027288348 -0.083207585 0.03694149 -0.008002668
000120 4b 4e 6e bd 3b 7d 83 bb b9 e9 b3 bd c5 be 98 3d
       -0.058180135 -0.0040127314 -0.087848134 0.074582614
000130 de 4f db bd 7b f7 f1 bd d4 05 8a bd 86 86 b2 bd
       -0.10708593 -0.11814781 -0.06739393 -0.087170646
000140 ec 49 91 bd 1b c6 1c bd 93 16 9e 3d 00 44 60 3d
       -0.070941776 -0.038274866 0.077191494 0.05475235
000150 7e d9 4e 3e 46 7b ab 3d 81 34 2c 3a 89 7e 8b 3d
       0.20200154 0.08373122 0.0006569103 0.06811244
000160 28 d7 82 3d 03 9b 93 3d dd 7a 90 3d 31 c9 05 be
       0.06388694 0.072073005 0.07054684 -0.1306503
000170 53 43 8e bd 4f ed fb 3d f5 d5 51 3d 0e 56 78 3d
       -0.06946435 0.123011224 0.051229436 0.060628943
000180 a9 06 d6 3a 21 43 89 3c 80 6c af bd ba 88 60 bd
       0.0016328889 0.016755642 -0.085656166 -0.054817893
000190 ec 0b 33 3d da a9 da bd 6d 29 54 3d 63 cf f7 3d
       0.04371254 -0.10676928 0.05179732 0.12100103
0001a0 79 d6 21 3e 9c 69 3d 3b 03 00 eb bc 2d b2 25 be
       0.15804471 0.002890206 -0.028686529 -0.1618125
0001b0 ec 6d cc bd 03 16 40 be e4 6e af 3d 57 ef 83 bd
       -0.099819034 -0.18758397 0.085660726 -0.06442135
0001c0 74 b9 13 bb 6f 53 29 3d 49 00 87 3d ab b9 16 be
       -0.0022540959 0.041339334 0.06591851 -0.14719264
0001d0 88 ec d7 bd 88 72 2f be b9 a5 f9 3a e3 33 4e bb
       -0.10543162 -0.17133534 0.0019046582 -0.0031464032
0001e0 91 2e ea 3c f2 58 40 be 27 58 a3 bd 1c 97 04 3e
       0.028586658 -0.1878393 -0.07975798 0.12948269
0001f0 0d 74 14 be 6e 1a db bc 29 ae 3e bc e4 1a ea bc
       -0.14497395 -0.026746001 -0.011638203 -0.028577276
000200 63 39 1a 3d c7 a0 9c 3d d3 7e 95 bd d3 1c 91 bd
       0.037652384 0.07647853 -0.072995804 -0.07085576
000210 fe e7 0d bd 0c 94 06 bd 14 df 38 3d b0 cc 64 3e
       -0.034645073 -0.032856032 0.04513462 0.22343707
000220 39 b7 a4 3d 5b f5 87 3d 16 c9 19 bd 83 02 08 be
       0.080427594 0.06638595 -0.037545286 -0.13282208
000230 09 b6 9a be 29 c1 11 be 8f 08 86 be 69 e9 9b bd
       -0.30217007 -0.14233841 -0.26178405 -0.07612879
000240 58 eb 4e be 88 a1 52 bd be ba d5 3d e9 30 76 bd
       -0.20206964 -0.05142358 0.10436009 -0.060105238
000250 5c db 14 bc b8 84 93 3d e2 3b cc bb 8e d8 3e bc
       -0.0090855025 0.072030485 -0.0062327245 -0.01164831
000260 4a 90 87 bd ed da 8a 3d 19 bb d2 bd 26 24 5e 3d
       -0.06619318 0.06780038 -0.10289592 0.054233693
000270 ce a8 1d be bd 69 29 3a 1f e0 09 3e 0e f3 8e bd
       -0.15396425 0.00064625946 0.13464402 -0.06979953
000280 1a 89 3b 3d 1e f4 28 3d e4 77 6c bd 1f 13 29 be
       0.045785047 0.041248433 -0.057731524 -0.165112
000290 83 a3 e0 3c 5e 4c 85 3c 7b 57 fb bd 8d b8 8e be
       0.027421718 0.016271766 -0.12272545 -0.27875176
0002a0 98 da 72 3e 62 37 3b 3d c8 3f 5c 3d 44 32 00 3d
       0.237162 0.045707114 0.053771764 0.031297937
0002b0 fc 84 d0 3c ca d6 a2 3d f1 4b c1 3d c0 36 8d 3d
       0.025454037 0.07951124 0.09438313 0.06895208
0002c0 87 e7 e9 3d e0 7f 7e 3d 88 fd ac 3d ca c8 4f 3d
       0.114211135 0.06213367 0.08446795 0.050728597
0002d0 1f 12 af 3d 90 53 c4 3d a4 64 16 3a af df ea 3b
       0.08548378 0.09586251 0.00057370425 0.0071677784
0002e0 89 15 95 bd 5c b7 0c be 2f 76 29 bd 2f ad 55 3c
       -0.07279498 -0.13741821 -0.041372474 0.0130417785
0002f0 42 be 8f 3d 2d d3 6f 3d db 91 5d bd ea 50 16 be
       0.07018711 0.058551002 -0.054094177 -0.14679304
000300 7b 49 65 bc bb 72 12 be 28 46 18 be 18 ee ce bd
       -0.01399457 -0.14301579 -0.14870512 -0.101040065
000310 e1 e6 2a be ed 75 2e 3d b5 38 ad 3d 08 69 c2 bd
       -0.16689636 0.04259293 0.08458082 -0.09492689
000320 b3 31 5a bd f7 79 62 be b0 73 89 be d4 33 57 be
       -0.053270053 -0.22116838 -0.26846075 -0.21015865
000330 fe 69 94 bd 5a 96 38 be d7 c0 21 bd be 5c e8 3d
       -0.07246779 -0.18026105 -0.039490547 0.11345814
000340 64 70 a6 be 0b bb 5e be 4b 5e af 3d 2f a1 de 3d
       -0.32507622 -0.21751039 0.08562907 0.10870587
000350 9a c3 1b 3e d3 21 47 3d 6e b5 ef 3a d5 78 a1 bd
       0.15211335 0.04861624 0.0018288323 -0.07884375
000360 01 8f 7d 3c f3 c9 0e 3b 94 20 9a bc 86 0c ed 3d
       0.015475989 0.0021787852 -0.018814363 0.11574654
000370 d4 7b 75 bc 4b ed a7 3d 5d 37 00 be 24 65 2f bd
       -0.014983136 0.08199557 -0.1252112 -0.042821065
000380 0d fe e0 bd cf 80 73 3c c1 8f 06 bd 06 ca ab 3d
       -0.10985956 0.014862253 -0.03285194 0.08388142
000390 18 5e 05 3e be ac 88 bd 57 b6 0e be b1 c5 2a 3e
       0.13024175 -0.06673573 -0.13936745 0.16676976
0003a0 a9 e0 55 3e f0 55 89 3d 3f e9 22 be 4b 74 b2 bd
       0.20886482 0.067058444 -0.15909289 -0.087135874
0003b0 12 ce 1a be 08 c7 ea 3c 31 62 32 bd 45 46 23 be
       -0.15117672 0.028659359 -0.043550674 -0.15944774
0003c0 ee 09 25 3d e4 00 91 3d 95 19 42 3d 00 68 0c be
       0.040292673 0.07080248 0.04738768 -0.13711548
0003d0 33 83 4e 3d 64 65 0f 3e d6 0d 81 bd 5a 5a a9 bd
       0.05041809 0.14003521 -0.06301467 -0.08269186
0003e0 bf 6e f0 3d 4b 4c 98 bd 9e 39 2f bd e6 8b c7 3d
       0.11739873 -0.07436427 -0.042779557 0.097434804
0003f0 2d dc 89 bd 21 7f bc 3b 15 a8 30 3e b8 62 5b be
       -0.06731448 0.0057524596 0.17251618 -0.21424377

feature.4.bias f4 [32]
000000 ca 21 77 3c e2 c2 96 bc ee 6e aa 3c d8 db 2e bc
       0.0150837395 -0.018403474 0.020804849 -0.010672532
000010 4d 67 6e bd 8f f6 0d 3c f9 9d 8b 3d bc 39 a2 3d
       -0.058203984 0.008664741 0.0681724 0.07921168
000020 17 60 19 bd 40 a4 cc 3c 39 d9 e2 bc 26 53 85 bd
       -0.037445154 0.024980664 -0.02769147 -0.0651
000030 bb d4 46 3d 49 78 54 3d 2f a9 1b bd 43 78 12 bd
       0.04854272 0.051872525 -0.038003143 -0.03575922
000040 a1 9d 10 bd 0f 16 69 3d f8 38 a4 3d 23 2b bb bd
       -0.035306577 0.056905802 0.080186784 -0.09139087
000050 6f f2 ca bc 16 19 a1 bc b5 e2 28 3d 31 ad 86 3a
       -0.024773804 -0.019665282 0.04123183 0.0010275004
000060 e6 63 66 bc cc 2a 18 3c 22 15 ed 3c 68 03 aa 3d
       -0.014061904 0.009287547 0.028940741 0.08301431
000070 ff 78 82 3c 17 4d f7 bc fc 5d c1 bc f8 41 ee bc
       0.015926836 -0.030188126 -0.023604386 -0.02908419

feature.6.weight f4 [32, 32, 3, 3]
000000 72 c3 ad bd d7 f9 8d be 4b ab 93 be 6c 9c e1 bd
       -0.08484544 -0.27729675 -0.28841624 -0.11016163
000010 f8 a3 44 be 44 42 54 bb f6 fa ab bd 38 1a 03 be
       -0.19203174 -0.003238813 -0.083974764 -0.1280297
000020 cb 73 b3 3d fb 27 40 3e d5 68 6a 3e f0 d8 cd 3d
       0.0876232 0.18765251 0.22891553 0.10051143
000030 ac 3e b7 bd 05 00 9b bc 19 c1 80 bd bf 36 f0 bd
       -0.089475006 -0.018920908 -0.062868305 -0.11729192
000040 5b eb 89 3d c2 de 18 be 99 f2 98 bc bb fc 9b be
       0.067343436 -0.14928725 -0.018670367 -0.30466256
000050 30 1f 03 bf 7e 14 75 bd f8 f1 88 3d 5c 78 31 bd
       -0.51219463 -0.059833996 0.06686777 -0.043327674
000060 6e c4 1c be 29 7b 5c bd 7b 1b 7d 3c 16 c5 c3 bd
       -0.15309307 -0.053828392 0.015448446 -0.095590755
000070 4f 3c 77 be 31 6d 38 be 12 3e bc 3d ba 8b b8 bd
       -0.241441 -0.18010403 0.091915265 -0.09011026
000080 d7 03 de bd eb 05 09 3d 24 69 ed bd 3b a1 dd bd
       -0.10840576 0.03345291 -0.115923196 -0.10821768
000090 4d 06 86 bd 07 65 5a bb f6 c4 a9 3c f6 d1 42 3e
       -0.065441705 -0.0033324377 0.020723801 0.19025406
0000a0 3d 4b 85 3d b8 65 88 be 43 9b 87 3d 96 94 1c 3c
       0.06508491 -0.26640105 0.06621411 0.00955691
0000b0 ba 63 45 3d c9 ef 30 be e3 3a 4e 3e ca 4c d1 bd
       0.04819081 -0.17278971 0.20139651 -0.102197245
0000c0 a8 82 b7 bd 02 fc 56 3b 84 c7 03 bd 26 c5 58 bd
       -0.089604676 0.0032804017 -0.032172695 -0.05292239
0000d0 39 14 ef bd 73 fc df bc c2 0b c4 bd 5f b9 92 be
       -0.11673779 -0.027342057 -0.09572555 -0.28657052
0000e0 e8 68 e1 be 2d 0a 93 bd ef c3 6e be e1 05 a1 3d
       -0.4402535 -0.07179675 -0.2331693 0.078624494
0000f0 e8 a1 a9 bd 70 5b 2c 3e 25 21 1e 3e 49 8b 78 3e
       -0.08282834 0.16831756 0.15442331 0.24271883
000100 d7 73 8d be fe f8 1f be f1 6c a5 3c 37 07 8d be
       -0.2762744 -0.15622327 0.020193549 -0.27544567
000110 17 2c d6 bd 05 79 66 be d8 f9 42 3d f2 b7 25 3e
       -0.10457628 -0.22507103 0.04760155 0.16183451
000120 22 96 a1 be 70 78 64 be 57 c9 03 be f9 27 3a be
       -0.31559855 -0.22311568 -0.12869774 -0.18179311
000130 3b 85 6a bd 06 8d fe bc e2 56 7d 3e 18 19 6a 3d
       -0.057255965 -0.031073105 0.24740174 0.057152838
000140 f3 41 0a bd 26 44 8c 3d 4e 4f 38 bd f4 e8 f2 bd
       -0.0337543 0.06848936 -0.044997506 -0.118608385
000150 0d 18 d9 bc 48 82 ba bd 9a 0e 3b be ca 4b 86 bd
       -0.026500726 -0.091068804 -0.18267289 -0.06557424
000160 df 02 2c 3e 48 46 b6 bd 0f 5f 33 be 7c db 94 3c
       0.1679797 -0.08900124 -0.1751673 0.018171065
000170 06 04 26 3e 10 e8 1a bd c4 70 09 3e cd 1a 28 bd
       0.16212472 -0.03781897 0.13421923 -0.041041184
000180 ed dc c4 3d 12 30 95 bd a4 57 3f be c3 b8 91 be
       0.09612451 -0.07284559 -0.18685776 -0.28461275
000190 55 c3 9c bc 95 fa 93 bd aa 28 21 be 37 b0 93 bd
       -0.01913611 -0.07225529 -0.15738168 -0.07211345
0001a0 c9 bd 0a bd 9e 57 63 3e 2b a2 d0 bb 9c 7a 81 be
       -0.0338724 0.22201392 -0.006366988 -0.25288856
0001b0 06 74 96 be d1 b0 9a be d3 b1 83 be 53 d3 0a 3e
       -0.29385394 -0.30213025 -0.25721607 0.13557176
0001c0 46 a3 a8 3d 77 f4 40 bd 6a da e5 be da b8 b3 bc
       0.08234267 -0.04710814 -0.448932 -0.02193873
0001d0 57 0d 79 bd 6d 0a 28 3d 29 6f 1c 3c 70 36 99 3d
       -0.060803737 0.041025568 0.009547987 0.07481086
0001e0 7f 37 6d 3c c5 62 09 3d e8 f8 7a 3d 7a 5b 49 bd
       0.014478563 0.03354146 0.06127253 -0.049159504
0001f0 11 76 43 3d c0 e5 05 3e a2 1f 3e bd 08 9a 7f 3e
       0.04772002 0.13075924 -0.046416886 0.24961102
000200 d8 9c 8c 3e 06 0d 81 3d 13 71 36 bd df ba b4 3d
       0.27463412 0.06301312 -0.04454143 0.08824705
000210 80 c5 87 bb 02 8e 94 3c 06 12 60 be 41 bd bb bd
       -0.004143417 0.01813412 -0.21881875 -0.09166957
000220 1e 83 12 be ec 26 0a be ec 79 6d be 6e 38 06 bc
       -0.1430783 -0.1349141 -0.23191041 -0.008192165
000230 e9 40 b7 be 0e 50 00 bd 08 a7 3d bc 2d 20 f7 bd
       -0.3579171 -0.031326346 -0.011575468 -0.12066684
000240 e5 4f 5d bd d8 20 76 3c 14 90 de bc 38 d6 9b bc
       -0.05403127 0.015022479 -0.027168311 -0.019023046
000250 84 91 5a bd 98 ef 35 be 56 af 2d 3e c8 97 43 bd
       -0.05336143 -0.17767179 0.16961417 -0.04775217
000260 4c 30 ca bd 9c 54 4e 3d 98 7d 54 be 5c d7 33 bd
       -0.09872493 0.05037366 -0.20751035 -0.043906555
000270 50 4a 1f bd bf 1d 2f bd ae 57 9b 3e d5 38 b4 bd
       -0.03888923 -0.042752977 0.30340332 -0.08799902
000280 97 82 fd bd 5b 29 c4 3e a6 6b c1 bd 8a 33 9d be
       -0.12378424 0.38312802 -0.094443604 -0.30703384
000290 8b 44 d5 be 8c 13 09 3c ac ff d1 bb 48 54 65 3d
       -0.41653857 0.008366477 -0.0064086523 0.05598858
0002a0 de 7b 83 be 38 29 1e 3e e1 87 09 bd 29 cd 09 3e
       -0.2568044 0.15445411 -0.03357685 0.13457169
0002b0 5d a3 f2 3e 99 8d 40 3e 5d 72 a3 bc 59 a9 2d be
       0.4739026 0.18804015 -0.019951994 -0.16959132
0002c0 d5 18 ea 3d 05 87 c1 bc f5 28 8e bd 5d 2e af bb
       0.114305176 -0.023623953 -0.06941406 -0.005346103
0002d0 09 b6 bc be 49 81 88 bd 36 f1 cf bd 71 ad 34 be
       -0.36857632 -0.06665284 -0.10153429 -0.17644288
0002e0 46 35 32 3d 53 45 83 3d 96 87 e6 bd ef 97 0a 3e
       0.043507837 0.06409707 -0.1125633 0.1353452
0002f0 2e 53 b5 3b 2a e1 e5 3d 23 f7 8d 3e fd a7 ba 3e
       0.0055335974 0.11224587 0.27727613 0.3645629
000300 7a 90 16 bd 6b fa 54 be eb 17 e1 bd 43 80 18 bb
       -0.036758877 -0.20798652 -0.1099089 -0.002326981
000310 69 66 68 3c 88 d1 9b bd 5c b0 6f be d4 3b fd be
       0.014184573 -0.07608324 -0.2340712 -0.49459708
000320 30 2c bc be 17 a7 ec 3d f9 3b a4 bd a0 d0 65 3d
       -0.36752462 0.11555307 -0.080192514 0.056107163
000330 a4 3d 5d 3d 10 d0 67 3d e5 0a b5 3c 92 51 18 3e
       0.054013863 0.05659491 0.022099921 0.14874867
000340 97 cf 74 3e d1 31 c8 3d bd 7e b7 bd 77 22 75 3e
       0.23907314 0.09775127 -0.0895972 0.23938929
000350 82 15 c2 b9 68 6b a7 bd 36 96 24 3e 10 b5 0d 3d
       -0.00037018588 -0.08174783 0.16072926 0.034596503
000360 e4 9e 4d 3d 80 9d 5f 3e f2 94 21 3e 1c 35 35 bc
       0.050200358 0.21837425 0.15779474 -0.011060026
000370 c3 9e 42 be 6c c7 8b be b3 45 73 bc 27 fe 9b 3d
       -0.19005875 -0.27300584 -0.014848161 0.07616835
000380 84 44 1c be ad f3 49 bc cf af 5d bc 61 90 db 3d
       -0.15260512 -0.012326163 -0.013530686 0.107208975
000390 de c7 bc 3d cf 3c 32 be af cd 9c bd 36 24 c8 bd
       0.09217809 -0.17406009 -0.076564185 -0.09772532
0003a0 f8 a2 1d bc 62 ae 62 3e 92 c3 e9 be 6f b9 80 be
       -0.009621374 0.22136834 -0.4565702 -0.25141475
0003b0 13 72 4f be 16 e7 3d 3d e5 2b d6 3d 19 e3 d6 bd
       -0.2025836 0.04636296 0.10457591 -0.10492534
0003c0 d7 3e 93 3d 49 77 07 be 34 d2 20 be 29 3a 2a be
       0.0718972 -0.13229097 -0.15705186 -0.16623749
0003d0 69 42 91 be 2a b4 9b be 71 f1 35 3d 38 ee 59 3c
       -0.2837098 -0.30410892 0.04441971 0.013301425
0003e0 5e d8 d9 bc a4 4c e8 3d d6 6d f9 3b 50 8c 28 bc
       -0.02659243 0.11342743 0.0076119704 -0.010287359
0003f0 a1 42 b9 3d 77 a2 4a be 35 43 36 bc 89 84 89 3d
       0.090459116 -0.19788538 -0.011124422 0.06714732

feature.6.bias f4 [32]
000000 25 56 c4 bc 75 fb 14 bc a3 1a d1 3c 1c aa 62 3d
       -0.023966858 -0.009093155 0.025525397 0.05533801
000010 e0 29 7a be 15 da d3 ba b3 6d 3a 3c 28 a5 c2 bc
       -0.24430037 -0.0016163016 0.011378693 -0.023760393
000020 01 9c 4f 3d a9 ce 97 3b 76 02 be 3c 4e 38 d8 3c
       0.050685886 0.00463279 0.023194533 0.026394036
000030 37 b8 76 be 26 5f 79 bc a4 42 e6 3a 52 72 8f bc
       -0.2409371 -0.015220439 0.0017567468 -0.017510567
000040 02 48 f6 ba d7 0b 62 bc df b5 30 bc 32 ae 69 bb
       -0.001878977 -0.013796768 -0.010785549 -0.0035656807
000050 cc 5d 72 3c f3 c7 ce 3c fe 1b 87 3c 7d 97 8b 3b
       0.014792871 0.025241828 0.01649284 0.004260002
000060 7e 3b 29 3d dd 43 c3 bc da b1 eb ba 3d 3a a5 3c
       0.0413165 -0.02383607 -0.0017982081 0.020169372
000070 8e 51 6b bb ae bc 21 bd de 19 58 3b ae 47 0b 3d
       -0.0035906765 -0.03948658 0.0032974402 0.034003906

feature.9.weight f4 [256, 288]
000000 d2 f1 3e bd 3f 8d d3 bc e8 1a fd 3d 6c 3d 02 bc
       -0.046617337 -0.025824187 0.123586476 -0.007949214
000010 7a 97 69 3c c3 4c 48 3d 71 60 a5 bd ee 48 55 3d
       0.014257306 0.04890133 -0.08075035 0.052071504
000020 dc bd 24 3d 93 21 0c 3d 3d fc dd bc 9a bc 67 3d
       0.040220127 0.034211706 -0.027097816 0.05657635
000030 a5 25 cd bd ca 4b b7 bb ef 82 29 3e 76 58 3c be
       -0.10016946 -0.0055937516 0.16553853 -0.1839312
000040 dd c8 20 3c 98 20 59 3c 1f 3a 04 be e7 50 b7 3d
       0.009813515 0.0132524 -0.12912796 0.08950978
000050 62 7f 1a bd 3d 33 7b bc 1d dc a0 bd 34 08 d6 3d
       -0.037719138 -0.01533204 -0.07854483 0.10450783
000060 d8 3c 48 3e d4 19 82 bd 6a d6 0a 3e 76 96 95 3d
       0.1955446 -0.063525826 0.13558355 0.07304089
000070 8a 11 43 3e 97 b3 db bd b8 9c b6 3d 32 06 d7 bd
       0.1904966 -0.107276134 0.089166105 -0.104992285
000080 6d 48 38 3e 4b 7f 12 be 55 3a 36 3d 52 c6 19 3e
       0.17996378 -0.14306371 0.044489224 0.1501706
000090 9f 66 0c 3e 23 4c 8d 3d 15 90 e7 3a 42 06 97 3b
       0.13711022 0.068992876 0.0017666841 0.0046089003
0000a0 81 ec ad 3d ac 8f fe 3d 3d 9c 36 3d e1 ac 57 bd
       0.08492375 0.12429747 0.044582594 -0.052655105
0000b0 8b 5d 9c bc f4 08 c3 3b 96 e8 0c 3d 2e df af bc
       -0.019087574 0.005951995 0.0344015 -0.021468725
0000c0 de 1d b5 bb 49 fe 00 bd f5 87 06 3e 1f e7 f8 bb
       -0.005527242 -0.031492505 0.13137801 -0.007595911
0000d0 3b d0 a3 3e 54 a7 26 be e2 28 bd 3d f9 bd 2d 3d
       0.31994805 -0.16274768 0.092363134 0.0424175
0000e0 f0 5d a3 3d 5a db 2d 3d d7 c5 b5 3c 2b d1 df bd
       0.079769015 0.042445518 0.022189064 -0.109285675
0000f0 df fb 7c be 14 c9 02 bd 3d 4c 3a bd ac 14 2f bd
       -0.24705456 -0.031930044 -0.045482863 -0.042744324
000100 78 9e 1c 3e 38 50 82 bb 34 27 07 bc 3a e9 76 bd
       0.15294826 -0.003976848 -0.008249093 -0.060281016
000110 9a c5 e2 bd 75 48 10 bd 2d 5d af 3d 96 6b 42 3e
       -0.11072846 -0.03522535 0.08562694 0.18986353
000120 8f dd 57 be b5 9e dc 3b f1 48 ed 3d 66 aa 55 3d
       -0.21080612 0.0067327865 0.11586178 0.052164458
000130 71 33 2b be 70 d6 0e 3e 8b 3d 86 be 9b 3a 0d be
       -0.16718842 0.13948989 -0.2621883 -0.13791887
000140 6f f6 b6 3b 88 1f 60 bd 0c 2d 64 3b 4c 2e 88 3d
       0.0055835764 -0.05471757 0.003481689 0.066494554
000150 ac 25 e2 bc 09 7e 61 bb d9 a0 fb bd 73 39 2b be
       -0.027605854 -0.0034407398 -0.12286539 -0.16721134
000160 46 49 14 3d 70 67 89 bd fe cd 21 bd f3 ef f3 bd
       0.03620269 -0.06709182 -0.03950309 -0.11911001
000170 b9 9a 94 bd 79 b4 43 be 65 79 92 3d a9 9e d8 bb
       -0.072560735 -0.19111814 0.071520604 -0.0066107106
000180 6f 2e 19 3e fb 6e 2b 3e bc 4c 19 3e 44 64 af 3b
       0.1495912 0.16741554 0.14970678 0.0053525288
000190 33 7d 07 bd 27 76 80 be 2e cb 70 be f6 57 e1 3c
       -0.033078384 -0.25090143 -0.23515007 0.027507763
0001a0 e3 3e 06 be b9 96 52 be c6 24 1f 3e 78 c9 75 3d
       -0.13109927 -0.20565309 0.15541372 0.06000659
0001b0 c2 44 b0 bc 4f e5 d1 3c 06 71 0d 3d ea 9a a7 bd
       -0.021517161 0.025622038 0.034531616 -0.081838444
0001c0 9e 5b a6 bc 20 c9 1c 3d 75 a6 1b 3e c2 5e 88 3c
       -0.020307358 0.038277745 0.15200217 0.016646747
0001d0 3e f1 0a 3e b8 9b 03 3d 7d cf e8 3c 6b 7a f0 bd
       0.13568589 0.032130927 0.02841925 -0.117420994
0001e0 8c e4 bd 3d 1a 82 43 be 2a 72 27 bd 90 fd 42 3e
       0.092721075 -0.19092599 -0.04088036 0.19042039
0001f0 7a ad d6 bc e8 45 17 be e4 4b 17 3e a5 02 ed 3d
       -0.026205767 -0.14772761 0.14775044 0.1157277
000200 3d e2 ea 3d fc 50 9b bd 02 45 65 be 57 67 40 be
       0.11468933 -0.07583806 -0.22389606 -0.18789421
000210 d4 83 3b 3d 96 d4 8c 3d 27 5d f8 bd 72 59 96 3d
       0.045780018 0.06876485 -0.121271424 0.07341279
000220 2e db b0 3c da 72 0d be 57 3f 09 be ff e0 12 be
       0.021588888 -0.13813344 -0.13403068 -0.14343642
000230 41 92 20 be e1 71 37 be 70 03 db bd 5a 5a 73 bd
       -0.15680791 -0.17914535 -0.10694015 -0.059412338
000240 b4 ef 2c 3e bb e1 0b 3d 88 ef 2a bd 7f 1d 02 bc
       0.16888314 0.03415082 -0.04173234 -0.007941603
000250 ba 57 71 bd 47 c5 d9 3c b4 83 c9 bd 20 58 f4 bb
       -0.058921553 0.026583327 -0.098395735 -0.0074567944
000260 df 6c 6d bd 64 03 d6 3d 2a 9b 92 3d d8 43 d9 bd
       -0.057965156 0.104498655 0.071585014 -0.10608643
000270 61 5b 85 3b 8f 7a 57 bd d4 40 b1 bd cd e3 05 be
       0.004069731 -0.052607115 -0.08654943 -0.1307518
000280 ed 31 66 3c e8 0f 11 3d d1 9c da 3d 62 ec 9f bd
       0.014049989 0.03541556 0.106744416 -0.07808758
000290 92 f2 31 3e cc 30 28 3e 6f 50 35 bd dd 93 6b be
       0.1737769 0.16424865 -0.04426616 -0.23005624
0002a0 90 9c 00 bb 24 7e 00 3e 94 b1 74 3d d6 39 4f 3d
       -0.0019624569 0.12548119 0.059739664 0.050592266
0002b0 a6 fd 85 3b 1f 97 4a be d0 e9 8f 3d 6d 03 db 3d
       0.004089075 -0.1978421 0.07027018 0.10694013
0002c0 88 2b a7 bd 41 36 1c be e3 f2 4a 3c 21 06 f9 bd
       -0.081626 -0.15255071 0.01238701 -0.12159372
0002d0 20 c8 58 3d 9a d0 5d bd 99 6a 34 bd 2f f0 4d 3d
       0.05292523 -0.054154016 -0.044046972 0.050277885
0002e0 e2 a9 22 3e 88 5d fb bc af 85 89 ba 89 62 0b be
       0.15885118 -0.030684248 -0.0010492111 -0.13611807
0002f0 d0 cd a0 3d 42 87 f6 bd a7 3e 29 3e 89 4d 8b bd
       0.078517556 -0.12037517 0.16527806 -0.06801898
000300 fa 2b 90 bd d9 3a 9c 3b da 6d 28 bd 20 d2 d2 3d
       -0.07039638 0.0047677574 -0.041120388 0.102939844
000310 f8 23 91 3d 0d f6 00 bd f3 7f 43 3c db 83 41 3e
       0.070869386 -0.031484652 0.011932361 0.18897955
000320 e5 8b 64 3d 47 e8 a6 bb 84 e0 34 3e a9 34 c3 bc
       0.055797476 -0.0050936076 0.17663771 -0.023828821
000330 e9 aa 21 be fc da 96 3b 5c e6 bc bd c5 59 e4 3d
       -0.15787853 0.0046037417 -0.09223625 0.11149935
000340 13 9e 11 bd ef 30 2d be 8f 53 51 bd b1 71 fa bd
       -0.035551142 -0.16913198 -0.05110508 -0.12228716
000350 c0 d5 fc bd 8b 69 0f 3d b8 c8 d9 bd 9c b5 b2 3c
       -0.12345457 0.035012763 -0.10633987 0.021815114
000360 cd e3 c1 bd d5 c8 79 3c f3 0f 28 3e 37 ad 87 bd
       -0.09467278 0.015245636 0.16412334 -0.06624835
000370 34 45 8f 3d ee 12 53 be d3 4f c5 bd 38 f7 c0 3d
       0.06995621 -0.2061269 -0.09634366 0.09422153
000380 5d d7 5c 3b 87 8c b6 3d 3e 5d 80 bb 9d 61 31 3d
       0.0033697702 0.08913522 -0.0039173653 0.043305982
000390 da 24 58 3c ff 7c 41 3c 9b 14 3a 3e 77 b6 05 bd
       0.01319238 0.011809587 0.18171923 -0.032644715
0003a0 a3 41 0f 3d 1c 8a 2d 3d 6c e6 82 3e 16 77 32 3e
       0.034974705 0.04236804 0.25566423 0.1742824
0003b0 81 d4 19 bb af 44 79 be a9 66 b2 bd bd aa c7 bb
       -0.002347261 -0.24342607 -0.08710987 -0.0060933516
0003c0 43 63 a9 3c 59 1e a8 bd 0c da 32 be d9 b3 e1 bd
       0.020677214 -0.08208913 -0.17465991 -0.11020631
0003d0 2c 48 7d bd 86 f9 35 be bb c1 87 bd 2d 26 16 be
       -0.061836407 -0.17770967 -0.06628748 -0.14663
0003e0 27 95 1b be 69 22 b8 3d fd 28 79 bd 11 37 7d 3d
       -0.15193616 0.08990938 -0.060830105 0.061820094
0003f0 3e 53 96 bd aa b6 3b 3d d7 50 20 bd cb 3c b1 3c
       -0.07340096 0.0458285 -0.039139595 0.021635434

feature.9.bias f4 [256]
000000 fc f2 e1 ba 0c 9b 54 bc b5 dc 5d bb 7b ba d6 3b
       -0.0017238553 -0.012976419 -0.0033853475 0.006552992
000010 7b aa 6e 3b bd 03 26 3c 15 fd 80 3c 7e a2 96 3c
       0.0036417532 0.010132727 0.015745679 0.01838803
000020 d4 42 c2 ba 77 ce 7f bd 98 b6 45 bc 9a 3a 32 3c
       -0.0014820942 -0.06245276 -0.0120674595 0.0108782295
000030 b9 97 8f bd 85 a3 ee 3c 2f bc 15 bd b8 53 47 bd
       -0.07011361 0.029130707 -0.03655642 -0.048663825
000040 ec 5c de 3a 3e 47 3b ba 43 cd 12 bb 6f fc 9a bb
       0.0016964949 -0.00071441 -0.0022400178 -0.0047297995
000050 e6 13 79 be 75 68 32 bd c9 58 1f bd b4 a4 2e be
       -0.24323997 -0.04355665 -0.03890303 -0.17055017
000060 96 66 7a 3b a0 dc 92 bd 98 8c ac 3c 8c 51 de bb
       0.0038208119 -0.07170987 0.021063134 -0.0067846235
000070 f6 b7 15 be b6 d8 2b 3d 70 87 57 3b 5e 80 1f bc
       -0.14620957 0.04195472 0.0032887124 -0.009735195
000080 96 24 73 bc 92 86 20 3b b7 bc 57 be b9 1e ac bc
       -0.014840266 0.0024494273 -0.21068083 -0.021010743
000090 dd 54 4f bb 23 0d 89 3b f6 b6 79 3b 52 cb 00 bd
       -0.0031636276 0.004182474 0.0038103438 -0.0314439
0000a0 8e 05 17 bd db d2 12 bb 4b c7 22 bd b4 f0 5b bd
       -0.03687053 -0.0022403512 -0.03974084 -0.05369635
0000b0 1a db ad 3c 11 50 13 bc 36 32 0c 3d c9 83 84 3b
       0.02122264 -0.008991257 0.034227572 0.0040440303
0000c0 0e 03 86 3c 84 cd c4 3c 9b 44 a3 3b 54 c0 d3 bc
       0.016358878 0.024023779 0.0049825436 -0.025848545
0000d0 7f 7f 8d bc 7b 08 2e 3d da 17 c7 3c b5 cc 05 be
       -0.017272709 0.042488556 0.024303365 -0.13066371
0000e0 70 36 00 ba a6 46 da bb 21 3f 42 be d9 64 17 bc
       -0.00048909243 -0.006661254 -0.18969394 -0.009240353
0000f0 60 60 63 3c 74 27 ac bb f6 b6 10 3c dd 61 4b 3d
       0.013877958 -0.0052537266 0.008832684 0.049653877
000100 13 dd 47 bc 5e 12 a9 bb 30 c2 cc bc 93 d9 1a bd
       -0.012198704 -0.0051596602 -0.02499494 -0.03780515
000110 33 e4 1e 3d 78 35 f5 bd 99 65 d4 bd b6 a6 c1 3b
       0.038791846 -0.11973089 -0.10370941 0.005909766
000120 9b 08 ef bd a6 1e e9 bb a9 93 e2 bd 87 38 77 bc
       -0.11671563 -0.0071142493 -0.1106332 -0.015089161
000130 85 a2 07 ba 28 6d 54 3d 3d 5d 31 bd af db 9b 3c
       -0.00051740586 0.051861912 -0.04330181 0.019025652
000140 8c ee 53 bb 05 69 f9 bd bd 19 2d 3c e0 69 04 be
       -0.003233823 -0.12178234 0.0105652185 -0.12931013
000150 93 4c 77 3c 6c dc 3b be f3 3e d6 3c 7b bd a6 bb
       0.01509394 -0.18345803 0.026153063 -0.005088506
000160 1b 77 86 bb 6d 4a 85 3b 63 ef 5d bd 0d 66 71 3c
       -0.004103554 0.00406771 -0.054183375 0.014733803
000170 83 bf ac bc 96 fd a0 3c d5 f1 63 3d f3 4c 98 3c
       -0.021087414 0.01965217 0.05565055 0.01859138
000180 78 34 b0 3a e3 00 b2 bb 64 bb 58 bc 7a 71 fd bb
       0.0013443371 -0.0054322346 -0.013228271 -0.0077344747
000190 ee 44 7e bc 93 4d 3c be a7 52 03 3c 86 7c 5f be
       -0.015519364 -0.18388967 0.008015311 -0.21824846
0001a0 17 34 cd 3b c1 64 80 bd f3 f8 19 bd 10 57 33 bd
       0.006262313 -0.06269217 -0.037590932 -0.0437842
0001b0 27 e5 c9 bb e6 08 cf bb 53 c9 e6 bc be 8f 36 bd
       -0.0061613503 -0.0063181994 -0.02817217 -0.044570677
0001c0 bf 6d 11 bd fc 09 13 bc e5 35 64 3b 00 42 d7 3c
       -0.035505053 -0.008974548 0.0034822163 0.026276588
0001d0 1e 3b b9 bc 34 e2 23 3b 41 a4 3d bc d0 90 d1 3a
       -0.022611197 0.0025006654 -0.011574806 0.0015988592
0001e0 a7 e9 39 bd 42 c5 0a bc 69 7d 72 be 8a 13 f0 bc
       -0.045388844 -0.0084698815 -0.23680653 -0.029306192
0001f0 a6 de d1 bc 43 b7 4f bd f1 d8 fa 3b ab 33 b8 bc
       -0.025618862 -0.05071188 0.007655256 -0.022485575
000200 76 ba c1 bb 21 35 92 bc 32 a3 32 bb 6b 31 70 bc
       -0.0059121205 -0.0178476 -0.0027257917 -0.01466022
000210 e8 43 13 3c 1d 9a 05 bd bf f1 0c 3b 2a 79 8a 3b
       0.008988358 -0.032617677 0.0021506397 0.0042258697
000220 66 a1 46 3d 8c a6 26 3a 03 f4 14 bd c2 70 22 be
       0.048493765 0.0006357215 -0.03636552 -0.15863326
000230 29 5e 37 3c ec cb 82 bc ec f0 16 be fd 52 fb 3a
       0.011191883 -0.015966378 -0.14740342 0.0019174513
000240 2a 2a 05 3d bd a5 aa bc f0 ba 57 bd 8e c4 81 3c
       0.032510914 -0.020830983 -0.052668512 0.015840795
000250 f3 4c 8c 3c 93 63 9d 3c 05 ba e3 3a 47 7b c0 bc
       0.017126536 0.01921252 0.0017374164 -0.023496283
000260 6b 56 26 bd 0b e1 95 3c 5f d4 9a 3c 08 f6 2e 3d
       -0.04060976 0.018295785 0.018900095 0.042715102
000270 c6 08 f3 bc 44 6c a5 3c f2 8d 97 bc 53 05 04 bd
       -0.02966727 0.020193227 -0.018500302 -0.03223164
000280 2d bb 6e bb 58 97 2e bc 7d b6 cd bb 7a 45 fb bc
       -0.0036427483 -0.0106562 -0.006277858 -0.030672777
000290 85 1a 24 3c f2 fe 3b bc 7b 79 24 bc 68 f5 96 ba
       0.010016088 -0.011474358 -0.010038729 -0.0011517229
0002a0 3f 7f 26 be 1b 5f 08 3d f7 53 e6 bc 50 e9 a3 bc
       -0.16259478 0.033293825 -0.02811621 -0.020008713
0002b0 ca a7 16 be a0 d8 39 bb 28 29 b9 3a 40 9b 04 3c
       -0.14712444 -0.0028357878 0.0014126645 0.008093655
0002c0 9c 6b 99 bc 7f 92 68 bd 50 b7 a7 bd 6c 3f d7 bd
       -0.01872807 -0.056780335 -0.08189261 -0.10510144
0002d0 44 ee 89 bd 1e 4d fa 3c 33 fb 81 bc 9f 44 92 bb
       -0.06734899 0.03055435 -0.015866851 -0.0044637467
0002e0 4d 17 9a 3c ae 37 52 3b 83 81 0c bb 57 96 9e bb
       0.018809939 0.0032076645 -0.00214395 -0.0048396992
0002f0 e3 aa fc bb b4 45 23 bc 65 03 f0 bd cb ef 86 39
       -0.007710801 -0.009965349 -0.117193975 0.0002573713
000300 9f e4 28 bc 2d ed 5d 3c 6b 45 23 3d ba 55 29 3c
       -0.010308414 0.013545317 0.039861124 0.01033538
000310 0e b1 5d bd 4f 4c 48 be 68 fd cf 3c 0f 55 01 be
       -0.05412393 -0.1956036 0.025389388 -0.12630104
000320 59 b3 0e 3d 1c 32 da bb a9 93 c7 3b a7 82 db 3c
       0.034839008 -0.0066588055 0.0060906005 0.026795698
000330 51 62 c9 bc 55 5e f2 3b db 76 cd bb a0 02 8a 3c
       -0.024583014 0.007396499 -0.006270272 0.016846955
000340 80 67 d9 bd ef 2b c2 3c db a2 0b 3d a2 c8 be 3c
       -0.10615444 0.02370259 0.034090858 0.023289029
000350 4e 8b d7 bd 26 a5 68 bd 16 2e 02 3c df eb 85 3c
       -0.10524617 -0.056798123 0.007945558 0.016347824
000360 aa 3c d8 3c ac f0 48 bd a1 20 01 ba 80 ff 25 bd
       0.026396114 -0.049057648 -0.00049258216 -0.040526867
000370 1c 8d 0e 3d 4c 44 f4 bd fc 17 20 3b 54 c6 21 3b
       0.03480254 -0.11927089 0.0024428358 0.0024684863
000380 b1 b0 56 3c ac c5 85 bc 06 de 52 be 08 f9 21 bb
       0.01310365 -0.016329609 -0.20592508 -0.0024715085
000390 bd 00 0b bc e8 b9 79 be a4 ce 63 3c 94 67 02 bc
       -0.008484063 -0.24387324 0.013904247 -0.007959265
0003a0 a2 37 f7 3a 00 fa 49 3c 04 06 d1 bb c8 89 37 bd
       0.0018861184 0.012327671 -0.006378891 -0.044809133
0003b0 19 b8 13 bd 3a 29 0d bd 85 42 6f 3b ea 6c 23 bd
       -0.03606424 -0.034463145 0.0036508155 -0.03989879
0003c0 9e 60 84 ba cf da 8c bc ca 0b 1f bc 4d 15 d3 bc
       -0.0010099595 -0.01719418 -0.009707401 -0.025766993
0003d0 21 30 46 3c 90 08 11 bd f4 e5 cc 3c de 60 50 bc
       0.012096436 -0.035408556 0.025011994 -0.012718407
0003e0 30 38 a0 bd fc ca 68 bd 72 59 b8 3c d0 70 b3 3c
       -0.07823217 -0.056834206 0.022503588 0.02190438
0003f0 e2 93 1f bc 78 e3 f2 bc e1 46 d6 3c bd cd a5 bc
       -0.009739848 -0.029649481 0.026156845 -0.020239705
