my_way_home/models/my_way_home.model (torch_old, 683085 bytes, 16 tensors)

feature.0.weight f4 [32, 4, 3, 3]
0.06503087 -0.099011935 0.12816338 0.32204628 0.25842127 -0.07872115 0.2264392 0.019893443
-0.043684896 -0.06918363 0.4030509 -0.013351243 -0.042812183 -0.41778752 0.06600068 -0.3179022
-0.07634669 -0.3050208 0.14508662 -0.20823738 0.054629527 0.4558874 -0.14670132 -0.21070105
0.48170367 -0.20644188 0.04255069 -0.38793787 -0.54134685 0.20561187 -0.29730123 0.055541396
-0.40219083 -0.23526645 0.03787515 0.09771871 0.19929089 0.05918692 -0.25395557 -0.035261124
0.18772557 -0.28147528 -0.20812714 -0.060059354 0.08571303 0.18411501 -0.03366908 0.36099017
-0.018269733 0.19473542 -0.3243329 0.5293306 0.34021977 -0.20612903 -0.29908955 -0.5703651
0.15390585 0.24724798 0.17402568 -0.09189394 -0.21266279 -0.19327137 0.010732397 -0.07242136
-0.1755217 0.38607773 0.19078453 0.37958282 0.07481596 -0.019100618 -0.20573744 -0.0760954
0.010508203 0.021306062 0.22742094 -0.38709763 0.116395466 0.1584023 0.17076965 0.19322675
-0.009732549 0.27433705 0.30796152 -0.059302952 0.065242425 0.04135707 -0.19288948 -0.30406612
-0.37234125 0.16258986 0.004800662 0.19492821 -0.2539039 0.18961357 -0.005376928 0.10437158
-0.13481541 -0.13020031 -0.40307966 0.0451384 0.5201959 0.93002295 0.14725123 0.41993842
0.13390036 0.042939927 -0.06630551 -0.043554474 -0.43622017 -0.21010447 -0.04112039 0.22613032
0.3136279 0.09091126 -0.12620237 -0.30722913 0.16547872 0.27460018 -0.06323107 -0.3093473
-0.517607 0.07456336 -0.32327253 -0.105533056 -0.09334168 0.2871284 0.3435214 -0.092578396
0.2116068 -0.10370181 -0.021776298 -0.07154387 -0.13939844 0.181837 -0.2584179 -0.32947776
-0.25830552 -0.067406446 0.4402704 -0.09337543 -0.23328307 0.37560272 0.0073130173 -0.24165119
0.071915925 0.2578189 -0.10976329 -0.08373358 -0.2571902 0.25876698 -0.012053428 -0.0025857717
-0.47690168 0.06830765 -0.060654964 -0.26225477 0.387585 -0.03380418 0.15183377 0.30688262
0.05623394 0.0063870316 -0.0015153217 -0.20535013 -0.31431067 0.30769357 -0.18238671 0.23902279
-0.27377552 -0.22365628 -0.11366764 -0.24851084 -0.15019546 -0.096715696 0.25238016 -0.21508081
-0.510923 0.2757671 0.49481684 -0.33746654 -0.19446349 -0.2978593 -0.09546328 0.2994748
-0.05016126 0.16924547 -0.12579744 -0.44322863 -0.22708069 0.38604012 -0.37420344 0.19922176
0.21534152 0.23343034 0.124889165 -0.08913413 -0.24867378 -0.2353035 -0.107779525 -0.11346676
-0.4922918 -0.16650616 0.07426695 -0.123062775 0.24736586 0.37307584 -0.056698952 0.41695607
-0.26667958 0.37603658 -0.09015102 0.08586991 0.01727931 -0.14435655 0.28568757 -0.012049664
0.24362451 0.24038918 -0.2927399 0.18412095 0.07544101 0.037126675 0.016272992 0.036888923
0.50198823 0.423854 0.046653435 -0.09486979 0.030418813 0.3845336 0.18251655 -0.14982432
0.03223683 -0.30277804 0.09247549 0.18781596 -0.3348251 0.11412759 0.0143422065 -0.3665944
-0.025735518 -0.3868856 -0.021536512 -0.19258259 0.14312269 -0.008225457 -0.13133848 -0.06228428
0.42406824 0.5845637 0.2311201 0.28102213 0.0037448837 0.065715715 0.23069318 -0.04707074
00000000: e82e 853d c5c6 cabd 433d 033e 40e3 a43e
00000010: cb4f 843e 8e38 a1bd addf 673e 93f7 a23c
00000020: efee 32bd 26b0 8dbd b05c ce3e 2cbf 5abc
00000030: d45b 2fbd 3fe8 d5be 5d2b 873d 14c4 a2be
00000040: a75b 9cbd b02b 9cbe 9691 143e 2e3c 55be
00000050: 36c3 5f3d 136a e93e df38 16be 04c2 57be
00000060: dda1 f63e 8065 53be a249 2e3d cb9f c6be
00000070: b595 0abf eb8b 523e de37 98be 607f 633d
00000080: f5eb cdbe b0e9 70be f922 1b3d bf20 c83d
00000090: e912 4c3e fc6d 723d 7706 82be f86d 10bd
000000a0: 223b 403e 871d 90be 481f 55be cc00 76bd
000000b0: 508a af3d a588 3c3e 97e8 09bd b4d3 b83e
000000c0: 68aa 95bc b968 473e f60e a6be 3682 073f
000000d0: 4931 ae3e 7d13 53be 4422 99be 7203 12bf
000000e0: 7f99 1d3e 932e 7d3e ca33 323e e432 bcbd
000000f0: 46c4 59be eee8 45be f0d6 2f3c a651 94bd
00000100: f6bb 33be fbab c53e 055d 433e ae58 c23e
00000110: 1c39 993d e678 9cbc d6ac 52be e8d7 9bbd
00000120: 992a 2c3c 0d8a ae3c 09e1 683e a931 c6be
00000130: bf60 ee3d 3634 223e 3dde 2e3e 3cdd 453e
00000140: 4575 1fbc e875 8c3e 22ad 9d3e a7e7 72bd
00000150: d29d 853d 0866 293d d284 45be 8eae 9bbe
00000160: 83a3 bebe f57d 263e df4e 9d3b 439b 473e
00000170: b1ff 81be 0f2a 423e f130 b0bb c4c0 d53d
00000180: 0d0d 0abe 3b53 05be 7560 cebe 0be3 383d
00000190: 8f2b 053f fc15 6e3f 07c9 163e 2b02 d73e
000001a0: 2d1d 093e c7e1 2f3d 2fcb 87bd 2d66 32bd
000001b0: 4058 dfbe a025 57be db6d 28bd b58e 673e
000001c0: d693 a03e af2f ba3d 323b 01be 234d 9dbe
000001d0: 4173 293e 6598 8c3e 4b7f 81bd c562 9ebe
000001e0: e481 04bf adb4 983d fa83 a5be b721 d8bd
000001f0: ec29 bfbd 7e02 933e 09e2 af3e be99 bdbd
00000200: 74af 583e 9d61 d4bd 3564 b2bc 9885 92bd
00000210: 77be 0ebe 7b33 3a3e 5a4f 84be 4fb1 a8be
00000220: 9f40 84be 640c 8abd 1f6b e13e 9e3b bfbd
00000230: c2e1 6ebe 004f c03e 09a2 ef3b 6973 77be
00000240: a848 933d d700 843e 93cb e0bd 837c abbd
00000250: 6fae 83be 1b7d 843e be7b 45bc 0d76 29bb
00000260: 752c f4be e2e4 8b3d 5771 78bd 4246 86be
00000270: 8b71 c63e 4076 0abd 507a 1b3e b81f 9d3e
00000280: 8f55 663d 4e4a d13b c29d c6ba 4e47 52be
00000290: 54ed a0be 038a 9d3e 95c3 3abe 64c2 743e
000002a0: 4e2c 8cbe 2706 65be 94ca e8bd a079 7ebe
000002b0: d7cc 19be e112 c6bd f937 813e 253e 5cbe
000002c0: dacb 02bf 5831 8d3e a258 fd3e 6ac8 acbe
000002d0: 7021 47be 0481 98be 4182 c3bd c354 993e
000002e0: e575 4dbd af4e 2d3e 0bd1 00be ddee e2be
000002f0: d787 68be 0da7 c53e 9897 bfbe ca00 4c3e
00000300: 7d82 5c3e 5d08 6f3e e4c5 ff3d f48b b6bd
00000310: 57a4 7ebe 67f3 70be 83bb dcbd 4361 e8bd
00000320: ac0d fcbe 9780 2abe 4519 983d 5608 fcbd
00000330: 7a4d 7d3e cc03 bf3e 293d 68bd 447b d53e
00000340: 3a8a 88be de87 c03e 19a1 b8bd 90dc af3d
00000350: 578d 8d3c 34d2 13be a445 923e f46b 45bc
00000360: b478 793e 9528 763e 01e2 95be 348a 3c3e
00000370: d180 9a3d 2412 183d f04e 853c d718 173d
00000380: 4d82 003f 6403 d93e ac17 3f3d 184b c2bd
00000390: e030 f93c 97e1 c43e 9ee5 3a3e 8c6b 19be
000003a0: c40a 043d b905 9bbe ca63 bd3d d452 403e
000003b0: 326e abbe babb e93d 93fb 6a3c 43b2 bbbe
000003c0: 4bd3 d2bc df15 c6be 576d b0bc 5f34 45be
000003d0: c18e 123e 11c4 06bc 987d 06be cd1d 7fbd
000003e0: 791f d93e f7a5 153f bfaa 6c3e 22e2 8f3e
000003f0: b96c 753b f695 863d d53a 6c3e 40cd 40bd

feature.0.bias f4 [32]
0.041152067 -0.031021655 -0.12289297 0.0011750095 0.03066031 -0.020449137 -0.04339569 -0.0829765
-0.1772455 0.03258769 0.03406714 0.17550638 -0.01964157 0.023979554 -0.02250432 -0.022670612
-0.00632541 -0.051775727 0.026050884 0.012764497 -0.03790109 -0.079421915 0.04885429 -0.0132687595
0.005433888 0.14279725 0.01976062 -0.03455714 -0.043403957 -0.14489175 -0.012792689 0.027974118
00000000: 128f 283d 2021 febc 4faf fbbd c702 9a3a
00000010: 552b fb3c f384 a7bc aebf 31bd 95ef a9bd
00000020: d87f 35be ab7a 053d fc89 0b3d f2b7 333e
00000030: 5ce7 a0bc c570 c43c fb5a b8bc b8b7 b9bc
00000040: 6345 cfbb c912 54bd aa68 d53c 2e22 513c
00000050: 2c3e 1bbd f5a7 a2bd 701b 483d 3665 59bc
00000060: c20e b23b 7139 123e 06e1 a13c ca8b 0dbd
00000070: 59c8 31bd 815e 14be 6d98 51bc fa29 e53c

feature.2.weight f4 [32, 32, 3, 3]
0.066915676 -0.0031597917 -0.02799437 -0.09883443 -0.0029808446 0.043967206 0.046823125 -0.120551884
-0.22186017 -0.011576804 0.015712578 0.123475164 0.07038476 -0.15433758 -0.04771665 0.17153576
0.0023495879 -0.05875586 -0.028588314 -0.010201647 -0.13628648 0.04035983 -0.08630434 -0.05404756
-0.13421851 0.00031453007 -0.10631147 -0.10837649 -0.084620856 0.059884947 -0.0128496345 0.1624651
0.07899154 -0.0790673 -0.033746127 -0.03988865 0.0007049202 0.053255215 -0.0141218165 -0.16106607
0.18108584 -0.021859419 0.10867803 0.069596216 0.1555201 0.04575401 0.01182243 -0.051281918
-0.02671032 0.025306314 0.04025842 0.055203475 0.11345142 -0.015322963 0.04434702 -0.05428572
0.041797433 0.0440198 0.023936866 -0.07105278 0.0826402 0.216336 0.019532429 -0.015190445
0.08748525 -0.13933797 -0.06473634 -0.02216923 0.00220984 0.1466308 0.014257883 -0.08313871
-0.12745617 0.10735908 -0.14975213 0.1278133 0.061129317 -0.16379945 0.20489065 -0.00035963702
0.019444183 -0.08094286 0.037746593 -0.10534369 0.11561083 -0.12938981 -0.18808481 -0.11484888
0.07874305 0.13602942 -0.06818952 0.07349183 -0.042695012 0.12850873 -0.031866267 0.070151456
-0.06467807 0.056965616 0.23593487 0.02288402 0.052604694 -0.057241153 0.046886127 0.120249145
-0.14096975 -0.0888627 -0.011682786 -0.098156355 -0.037275758 -0.0015069144 0.04331521 -0.09320272
-0.077268995 -0.06736971 -0.046830676 0.03386532 -0.04158507 -0.12683187 -0.13219656 0.080223866
0.06460002 0.027177162 -0.05794381 0.12383969 0.083892725 -0.017350867 0.009656315 -0.094637446
0.06582751 0.10803617 -0.09324697 -0.020933239 -0.0013177807 -0.056366257 0.007668696 0.052637532
0.0010641605 0.019173678 0.037494242 -0.069264695 0.03257219 -0.08019426 0.03453698 0.026679406
0.020466277 0.13161187 -0.12219867 -0.035056155 -0.043662585 -0.1798266 0.010646781 0.16629417
-0.016888035 0.054036736 -0.111477025 -0.052507143 0.1533582 -0.13614607 -0.07159405 0.14182682
-0.028505644 0.06990704 -0.0033793726 0.045568015 -0.14217372 -0.04887965 0.06429957 -0.038003866
-0.18373042 0.03565244 0.04314787 -0.18607423 -0.013693529 -0.022385983 -0.14777122 0.15931985
0.008201554 -0.1939688 0.16405477 -0.063748606 0.007120458 -0.08108771 -0.02916614 0.0023969086
-0.040371407 -0.03810032 -0.088735916 -0.03791694 -0.04471685 0.090628356 -0.12856346 -0.03861879
0.03460844 0.06353376 -0.06681657 -0.098795384 0.20317917 0.04092991 0.013505402 0.16590312
0.019108988 -0.11403677 0.024403721 -0.0022553995 -0.15131399 -0.12297447 0.053228244 -0.015435169
-0.089011475 0.023067595 -0.12358703 -0.04979555 0.14393532 -0.028937263 0.07480043 0.016139405
-0.23305349 -0.08916882 -0.087514296 0.08158783 -0.06666805 -0.04220148 -0.020080205 0.16981398
-0.05928379 -0.10382376 0.040045235 -0.06024299 -0.013727774 -0.060306765 0.12244497 0.027674355
0.030647129 0.21364294 -0.14233567 -0.18219928 0.04414727 0.016916355 0.05558981 -0.06820859
0.12328695 0.05688298 0.07310195 0.0439587 -0.07780507 -0.09579782 0.10943454 -0.10966532
-0.020724526 -0.060247555 -0.119301386 -0.107273914 -0.07254953 0.09535843 -0.16897246 -0.09111035
00000000: 160b 893d 8214 4fbb 7354 e5bc b569 cabd
00000010: 465a 43bb f516 343d 9bc9 3f3d e8e3 f6bd
00000020: 502f 63be a3ac 3dbc aab7 803c 8ce0 fc3d
00000030: e325 903d ac0a 1ebe 8972 43bd 12a7 2f3e
00000040: 8bfb 193b fca9 70bd 0a32 eabc cf24 27bc
00000050: af8e 0bbe 5950 253d 54c0 b0bd f960 5dbd
00000060: 9470 09be 83e7 a439 d4b9 d9bd 7ef4 ddbd
00000070: b34d adbd eb49 753d 4687 52bc 405d 263e
00000080: 51c6 a13d 09ee a1bd 6139 0abd 4862 23bd
00000090: 65ca 383a 2422 5a3d 315f 67bc 81ee 24be
000000a0: 916e 393e 8612 b3bc 9692 de3d 7688 8e3d
000000b0: a940 1f3e 8f68 3b3d deb2 413c fd0c 52bd
000000c0: 9acf dabc 304f cf3c 03e6 243d 0a1d 623d
000000d0: 3859 e83d 2a0d 7bbc 39a5 353d b45a 5ebd
000000e0: c933 2b3d 1b4e 343d 3f17 c43c 1f84 91bd
000000f0: 443f a93d 2f87 5d3e 7902 a03c 58e1 78bc
00000100: 772b b33d 9dae 0ebe 7c94 84bd 3f9c b5bc
00000110: f7d2 103b 6226 163e e599 693c a144 aabd
00000120: df83 02be 14df db3d 9f58 19be 7de1 023e
00000130: bc62 7a3d 0bbb 27be dbce 513e aa8d bcb9
00000140: 6849 9f3c 5fc5 a5bd 2c9c 1a3d 6fbe d7bd
00000150: 5fc5 ec3d c37e 04be 4e99 40be e435 ebbd
00000160: 0944 a13d 4c4b 0b3e f2a6 8bbd e282 963d
00000170: f7e0 2ebd cb97 033e 3486 02bd 91ab 8f3d
00000180: f075 84bd c754 693d e998 713e 4577 bb3c
00000190: 0578 573d b375 6abd ab0b 403d 2f45 f63d
000001a0: 605a 10be a6fd b5bd 2869 3fbc 3306 c9bd
000001b0: 77ae 18bd a883 c5ba 4a6b 313d 11e1 bebd
000001c0: 353f 9ebd 21f9 89bd 86d1 3fbd 5db6 0a3d
000001d0: 1b55 2abd 37e0 01be 895e 07be 694c a43d
000001e0: 044d 843d a4a2 de3c 7d56 6dbd aa9f fd3d
000001f0: f3cf ab3d 6823 8ebc 8535 1e3c 47d1 c1bd
00000200: 93d0 863d 1142 dd3d 44f8 bebd 2f7c abbc
00000210: 62b9 acba 4ee0 66bd af49 fb3b 749a 573d
00000220: 4d7b 8b3a 1e12 9d3c 9093 193d a6da 8dbd
00000230: 6b6a 053d e33c a4bd a676 0d3d c58e da3c
00000240: e5a8 a73c 43c5 063e 4c43 fabd 0b97 0fbd
00000250: 8ad7 32bd 7724 38be d66f 2e3c 0549 2a3e
00000260: c758 8abc a055 5d3d 114e e4bd bb11 57bd
00000270: ef09 1d3e e069 0bbe e79f 92bd 0d3b 113e
00000280: ab84 e9bc 6c2b 8f3d 7778 5dbb 87a5 3a3d
00000290: fd95 11be 0736 48bd 7eaf 833d f1a9 1bbd
000002a0: d423 3cbe 4b08 123d d2bb 303d 3e8a 3ebe
000002b0: d35a 60bc cf62 b7bc 5751 17be be24 233e
000002c0: d05f 063c c29f 46be f9fd 273e a18e 82bd
000002d0: bb52 e93b 5011 a6bd d4ed eebc 7415 1d3b
000002e0: 7d5c 25bd 150f 1cbd 2dbb b5bd cb4e 1bbd
000002f0: 0429 37bd 5c9b b93d 24a6 03be bd2e 1ebd
00000300: 94c1 0d3d fd1d 823d 20d7 88bd 3c55 cabd
00000310: 330e 503e 1fa6 273d c345 5d3c 82e2 293e
00000320: 748a 9c3c 1c8c e9bd 50ea c73c 53cf 13bb
00000330: 0ef2 1abe 0ada fbbd dc05 5a3d cbe3 7cbc
00000340: a64b b6bd 41f8 bc3c 321b fdbd 6bf6 4bbd
00000350: c863 133e d70d edbc f830 993d c936 843c
00000360: 93a5 6ebe 249e b6bd b23a b3bd 8517 a73d
00000370: 4289 88bd 76db 2cbd 3e7f a4bc b7e3 2d3e
00000380: 8fd3 72bd 8da1 d4bd 7906 243d 5ac1 76bd
00000390: 75ea 60bc 3a04 77bd 6ec4 fa3d 54b5 e23c
000003a0: b00f fb3c 37c5 5a3e 71c0 11be 7392 3abe
000003b0: c5d3 343d 2b94 8a3c 24b2 633d f2b0 8bbd
000003c0: de7d fc3d 21fe 683d 7ab6 953d 0a0e 343d
000003d0: 4458 9fbd a631 c4bd 371f e03d 3698 e0bd
000003e0: 7bc6 a9bc 24c6 76bd 4954 f4bd 6db2 dbbd
000003f0: d994 94bd 484b c33d 1e07 2dbe 1098 babd

feature.2.bias f4 [32]
-0.011425375 0.005917582 -0.107822634 -0.026062386 0.0035699462 -0.018895272 -0.0033490888 -0.059811737
0.0131925065 -0.07591874 -0.047300734 -0.0086502135 -0.02781648 -0.10007408 -0.15253009 -0.027666124
-0.08550064 0.009112318 0.024784572 0.04959701 -0.0056669493 0.025822315 -0.008569076 0.10342474
0.004959999 -0.13074474 -0.012418666 0.022009768 0.016461346 0.029602269 -0.048067622 0.082139544
00000000: 7f31 3bbc 47e8 c13b 1dd2 dcbd c980 d5bc
00000010: c2f5 693b 42ca 9abc 637c 5bbb 27fd 74bd
00000020: 6225 583c 497b 9bbd 6abe 41bd a0b9 0dbc
00000030: 63df e3bc a4f3 ccbd d930 1cbe 11a4 e2bc
00000040: f61a afbd d54b 153c 0409 cb3c 3c26 4b3d
00000050: d1b1 b9bb 5289 d33c 4f65 0cbc 5ad0 d33d
00000060: 7d87 a23b f3e1 05be a977 4bbc d44d b43c
00000070: f2d9 863c 7580 f23c 8ee2 44bd c738 a83d

feature.4.weight f4 [32, 32, 3, 3]
0.03253358 -0.023815649 -0.08056393 -0.06494867 -0.03445385 0.025771055 0.06701387 0.07544677
0.16159277 0.028662778 -0.06058413 -0.0038217492 -0.072832614 -0.076620035 0.02765381 0.27584672
0.06537606 -0.08342875 -0.029261155 -0.03963565 0.09118528 0.08125548 0.020593947 0.15932526
0.02091136 0.023829842 0.05640139 0.16929801 -0.0024789367 0.08233469 0.107369676 0.11985359
0.027279424 -0.057101775 0.118283935 0.11465875 0.02228327 0.062992826 0.050362546 0.10842915
0.042204622 0.056635346 0.0626925 -0.11592582 0.010806401 0.16954793 0.034610014 0.055280384
-0.0080790585 0.031392783 -0.005832767 -0.013319074 0.16216056 0.045950092 0.1662472 0.021807002
0.15896434 -0.02046199 -0.089723006 -0.12178672 -0.014165089 -0.063909985 -0.018514933 0.15530388
0.15588346 -0.0937775 -0.13510573 0.19454043 0.034066472 0.14951313 0.052999537 0.064922184
0.04160037 0.08941857 0.1338808 -0.092661954 -0.05467963 -0.0623447 0.04140099 -0.04730375
-0.23839793 -0.039007407 0.011321921 -0.13867052 -0.0016669345 -0.022625513 0.10261039 0.108040564
0.015047538 0.025416633 -0.09170777 0.022216108 -0.026653241 -0.010371591 0.10698087 0.033533968
-0.02804466 -0.023759238 -0.017590223 0.13443768 0.14281704 0.030841561 0.15173429 0.06910464
0.041648094 0.16730237 0.056637768 0.023748074 -0.045038886 0.06466485 -0.11609201 -0.060232777
-0.038483277 -0.05974167 -0.04877357 0.046498004 0.057777748 0.111040436 0.021575747 0.04498779
0.08416385 0.09588921 -0.059092097 -0.023784619 0.013002166 0.07564781 0.014874161 -0.1028423
-0.015437173 0.12858307 0.078846514 0.14725016 -0.04930449 0.17198361 -0.07066522 -0.0054439944
-0.081094146 0.031905994 0.007378695 0.11438795 -0.12512563 -0.005706681 0.042005558 0.058345284
0.0039127506 0.062721744 0.028374637 0.0010149237 -0.071499735 0.05307172 -0.015308879 0.1145643
0.0499701 0.13287413 -0.00838098 0.17496845 -0.044832926 -0.13931142 -0.049461205 0.053043254
0.03519889 -0.05949258 -0.019872058 -0.08206087 0.05091348 0.07287264 -0.0027005025 0.03541825
0.0890486 -0.05528286 -0.06476903 -0.06047551 0.061769105 -0.04364238 0.10935974 -0.01632929
-0.10880573 -0.038085837 -0.029913437 0.20480897 0.13922338 -0.113336764 -0.003207397 0.10036727
0.17634551 0.012044079 0.09240058 -0.01811968 0.026630145 0.0076186964 0.1537794 -0.08146377
-0.0900712 0.03683813 0.035582572 0.11096777 0.07057717 -0.008688573 0.11572277 -0.19050081
-0.0126197655 -0.046514213 0.072219424 -0.0015331091 0.091361485 0.040169623 0.006903111 0.16698396
0.0045535634 0.20777656 0.0028173497 -0.09502005 0.017269049 0.0785174 -0.14145027 -0.07626888
0.09033364 0.09105458 -0.01871349 -0.036772344 0.00649773 -0.001511948 -0.034042988 -0.076513395
-0.06376127 0.0577919 0.16683175 0.0024900357 0.03621433 0.18980126 -0.03623144 0.17272623
-0.0058551715 -0.05710184 -0.10200466 0.0034315567 -0.04059643 -0.051971294 0.045014195 0.11990472
0.10959408 0.099395074 -0.07044747 -0.05053755 -0.11899133 0.049370486 -0.18477072 0.032512907
-0.022734363 -0.073492385 -0.045202542 -0.033903267 0.12494617 -0.0029259308 -0.13807772 -0.063215345
00000000: ee41 053d 0919 c3bc b4fe a4bd cf03 85bd
00000010: 7b1f 0dbd d21d d33c 913e 893d d683 9a3d
00000020: 9378 253e 34ce ea3c 1127 78bd 5076 7abb
00000030: 4429 95bd f7ea 9cbd 3e8a e23c c83b 8d3e
00000040: e2e3 853d b1dc aabd 17b5 efbc fe58 22bd
00000050: 59bf ba3d 4669 a63d a3b4 a83c 2926 233e
00000060: 4d4e ab3c cd36 c33c 2505 673d 755c 2d3e
00000070: a875 22bb 179f a83d a2e4 db3d cd75 f53d
00000080: 1979 df3c 8de3 69bd d93e f23d 35d2 ea3d
00000090: 678b b63c 6202 813d f548 4e3d 1a10 de3d
000000a0: c1de 2c3d 77fa 673d ed64 803d 846a edbd
000000b0: 550d 313c f99d 2d3e 3bc3 0d3d af6d 623d
000000c0: 075e 04bc b895 003d cc20 bfbb 3f38 5abc
000000d0: 6b0d 263e 2a36 3c3d b53c 2a3e 99a4 b23c
000000e0: 8cc7 223e e79f a7bc b2c0 b7bd 516b f9bd
000000f0: b014 68bc 3de3 82bd a1ac 97bc fb07 1f3e
00000100: ea9f 1f3e 6b0e c0bd 2859 0abe 9b35 473e
00000110: 4989 0b3d f819 193e 0b16 593d ecf5 843d
00000120: 2665 2a3d 1521 b73d 0c18 093e 8dc5 bdbd
00000130: bff7 5fbd 285d 7fbd 1694 293d 94c1 41bd
00000140: 961e 74be 3bc6 1fbd 947f 393c a5ff 0dbe
00000150: 0a7d daba 2459 b9bc 6525 d23d 5f44 dd3d
00000160: f389 763c 8b36 d03c 49d1 bbbd 8efe b53c
00000170: e657 dabc 9bed 29bc c918 db3d ea5a 093d
00000180: eabd e5bc bca2 c2bc 5f19 90bc 08aa 093e
00000190: a13e 123e 71a7 fc3c 3c60 1b3e bc86 8d3d
000001a0: 3197 2a3d 5051 2b3e 01fd 673d 528b c23c
000001b0: b27a 38bd 016f 843d a6c1 edbd a5b6 76bd
000001c0: a4a0 1dbd aeb3 74bd ccc6 47bd b174 3e3d
000001d0: 5ca8 6c3d 2b69 e33d 9fbf b03c 1e45 383d
000001e0: 195e ac3d 9061 c43d 8e0a 72bd f6d7 c2bc
000001f0: 0907 553c 3ded 9a3d c1b2 733c fc9e d2bd
00000200: 32ec 7cbc 48ab 033e 487a a13d bfc8 163e
00000210: 81f3 49bd 791c 303e edb8 90bd 8963 b2bb
00000220: b014 a6bd dcaf 023d fbc8 f13b 3b44 ea3d
00000230: ef20 00be 1cff babb 050e 2c3d 77fb 6e3d
00000240: 8836 803b 4274 803d ed71 e83c 3007 853a
00000250: 746e 92bd bb61 593d 18d2 7abc b0a0 ea3d
00000260: 73ad 4c3d 2810 083e 6150 09bc ee2a 333e
00000270: bba2 37bd a7a7 0ebe d597 4abd e243 593d
00000280: b62c 103d 7eae 73bd baca a2bc 880f a8bd
00000290: a78a 503d 403e 953d eafa 30bb ba12 113d
000002a0: 1d5f b63d 4870 62bd a0a5 84bd 2bb5 77bd
000002b0: 9a01 7d3d 5ac2 32bd 00f8 df3d 01c5 85bc
000002c0: 8ad5 debd e5ff 1bbd 060d f5bc 71b9 513e
000002d0: 9390 0e3e 1b1d e8bd 3133 52bb 5b8d cd3d
000002e0: eb93 343e 8754 453c 843c bd3d b96f 94bc
000002f0: 7627 da3c 42a6 f93b 5978 1d3e 7ad6 a6bd
00000300: 4077 b8bd 94e3 163d 08bf 113d 1243 e33d
00000310: c38a 903d 845a 0ebc 0f00 ed3d a512 43be
00000320: 22c3 4ebc b085 3ebd c7e7 933d 9bf2 c8ba
00000330: bb1b bb3d e788 243d 7e33 e23b d8fd 2a3e
00000340: 0f36 953b 61c3 543e 49a3 383b df99 c2bd
00000350: d277 8d3c bbcd a03d 57d8 10be dc32 9cbd
00000360: d800 b93d d37a ba3d 084d 99bc 999e 16bd
00000370: e9ea d43b 8e2c c6ba a970 0bbd 0eb3 9cbd
00000380: 4595 82bd 33b7 6c3d f1d5 2a3e de2f 233b
00000390: 7a55 143d 435b 423e 6b67 14bd 25df 303e
000003a0: bddc bfbb 9ee3 69bd d2e7 d0bd f8e3 603b
000003b0: 7148 26bd dadf 54bd ce60 383d 9b90 f53d
000003c0: dc72 e03d a58f cb3d c346 90bd 7600 4fbd
000003d0: bab1 f3bd b538 4a3d 8934 3dbe 412c 053d
000003e0: 6a3d babc 2d83 96bd 4d26 39bd 27de 0abd
000003f0: c7e3 ff3d f9c0 3fbb 3f64 0dbe 0c77 81bd

feature.4.bias f4 [32]
-0.02529866 0.06313994 -0.019951547 0.055511463 0.015378478 -0.0019025939 0.00034422678 0.063887976
0.0076076617 0.02982413 -0.019953072 0.0099344365 -0.0051831044 -0.061251145 0.040048692 0.03739368
-0.037293497 -0.052210316 -0.026941603 0.021206299 -0.0169789 0.02186892 0.0057287035 0.022851689
-0.051899675 0.02544597 -0.027629452 0.00880916 -0.034824327 -0.0674026 0.07860687 0.00062354165
00000000: 233f cfbc 834f 813d 6d71 a3bc fd5f 633d
00000010: 03f6 7b3c 7560 f9ba 5679 b439 b3d7 823d
00000020: b149 f93b bc51 f43c a074 a3bc 0cc4 223c
00000030: 08d7 a9bb 7be2 7abd 190a 243d 1e2a 193d
00000040: 11c1 18bd 7cda 55bd a3b4 dcbc d5b8 ad3c
00000050: 5617 8bbc 7326 b33c d9b7 bb3b 7733 bb3c
00000060: c194 54bd 1174 d03c 2957 e2bc 4c54 103c
00000070: f4a3 0ebd 600a 8abd a3fc a03d 2c75 233a

feature.6.weight f4 [32, 32, 3, 3]
0.032922704 -0.011552197 0.12373353 -0.017823257 0.089097776 -0.11157882 0.08958512 -0.07454942
-0.010319778 0.049101803 0.016603 0.027251894 0.07790642 0.37649253 0.24318111 -0.004931876
0.100324556 -0.008535369 0.040251743 0.044032097 -0.026127206 0.06393383 -0.04989742 -0.107339896
0.05941108 -0.17658024 -0.02640914 0.043587726 -0.0096116485 0.049231894 0.06620228 0.19934982
0.11079568 -0.20551245 -0.06474816 0.015190974 0.11441956 -0.07964957 -0.20693278 -0.06099243
-0.058488145 0.05376755 -0.051676676 0.0006223403 -0.044606052 -0.27562955 -0.16143431 0.056060117
0.061453108 -0.116835944 -0.06126922 -0.112622686 -0.15810014 -0.032609254 0.0023075163 -0.17024335
-0.13949457 0.031187637 0.099966936 0.083846234 0.087808065 -0.039987423 -0.18720827 -0.070107564
0.0041375635 0.076384105 0.0611642 -0.16588323 0.09339285 -0.009772638 -0.05034542 -0.15327018
-0.051186163 -0.063651435 0.04974265 -0.07158031 -0.050767966 -0.020352291 -0.09804738 -0.042524166
0.011278715 0.013263218 -0.15160632 -0.1345145 0.05498114 0.053003017 -0.05739657 0.01885015
-0.14938234 -0.139679 0.19633915 0.09108018 0.042766005 -0.11849471 -0.029043134 0.10932741
-0.07222957 0.056059223 -0.033805203 -0.21920107 0.02361528 0.10187036 -0.007849595 -0.09811232
0.106284 0.080171 0.09417532 0.121661305 -0.035452273 -0.07964116 -0.04363477 0.11727614
-0.14780396 0.023841282 0.19077851 0.1799149 -0.0073414785 0.038345188 0.037531443 0.027699808
-0.060574062 -0.029813461 -0.15137197 -0.008365827 0.009241742 -0.067915 0.07329421 0.1966102
0.16053042 0.09262345 -0.099175215 -0.2529292 -0.09801358 0.13948132 0.21138473 0.0063292924
-0.0057015787 -0.1120655 -0.18720877 0.08614783 -0.06693995 -0.22559682 -0.011342878 -0.04968388
-0.03345242 0.098046914 -0.05722812 -0.11502222 -0.0905709 0.008311663 -0.1766382 -0.12006934
-0.12821056 0.11015078 0.048187237 0.009988279 -0.07928966 -0.11791734 -0.024864381 0.013038596
-0.0138424225 -0.11117506 -0.015905356 0.06098906 0.03688965 -0.1971561 -0.0152683025 0.020689517
-0.017122496 -0.11331362 0.010077571 -0.14173605 -0.038945436 -0.1300942 -0.13810287 -0.09356125
-0.056486152 0.01229592 0.13574845 0.049269333 -0.0486376 0.32697126 0.12147758 0.03398882
-0.02340376 -0.07110625 -0.094670616 -0.06262698 -0.013238986 0.030820718 -0.041181 -0.12107404
-0.07946887 -0.097085625 0.08218872 0.040426694 -0.118572205 0.013534782 -0.30841246 -0.30098218
-0.07819534 0.1137672 -0.033655025 0.20587467 0.1550839 -0.012717455 0.10543388 -0.08150332
0.016212355 -0.044855654 -0.052345283 0.026998326 -0.14387065 -0.13878223 -0.036976732 -0.057233408
-0.09679048 -0.10787745 0.015394476 -0.15432453 0.066701666 -0.09119292 -0.13261569 -0.08188378
0.0066693053 0.12222471 -0.13458325 -0.035442885 0.04217127 0.019939806 -0.08235743 -4.9360915e-05
-0.007225814 -0.07865324 -0.10137953 -0.14168009 -0.17556798 0.097807 -0.112149045 -0.09959535
0.07967638 -0.058625907 -0.035900056 -0.42616147 -0.15433435 -0.123335615 -0.10817836 -0.08158546
-0.1613434 -0.079945594 -0.0015394726 -0.078497835 0.096088454 0.18103102 0.033233114 -0.0728275
00000000: f5d9 063d 6d45 3dbc 0168 fd3d 1402 92bc
00000010: e578 b63d 7083 e4bd 6778 b73d 5ead 98bd
00000020: 4914 29bc f91e 493d 0403 883c 5d3f df3c
00000030: 678d 9f3d a1c3 c03e 7804 793e 939b a1bb
00000040: f676 cd3d efd7 0bbc 03df 243d 005b 343d
00000050: b908 d6bc bdef 823d 3d61 4cbd 05d5 dbbd
00000060: 0859 733d 73d1 34be fb57 d8bc 0b89 323d
00000070: 2d7a 1dbc 62a7 493d 1095 873d 5c22 4c3e
00000080: d8e8 e23d db71 52be af9a 84bd 90e3 783c
00000090: cd54 ea3d 501f a3bd 30e6 53be 33d3 79bd
000000a0: 4491 6fbd 5d3b 5c3d ecaa 53bd 8d24 233a
000000b0: d6b4 36bd 511f 8dbe 094f 25be 4b9f 653d
000000c0: 41b6 7b3d af47 efbd 6ff5 7abd b9a6 e6bd
000000d0: 01e5 21be 4891 05bd b339 173b 4654 2ebe
000000e0: aad7 0ebe 377d ff3c 77bb cc3d 93b7 ab3d
000000f0: b7d4 b33d dac9 23bd 86b3 3fbe 8e94 8fbd
00000100: 6694 873b 456f 9c3d 5087 7a3d 4bdd 29be
00000110: c044 bf3d 6a1d 20bc 0037 4ebd dcf2 1cbe
00000120: 95a8 51bd af5b 82bd f3be 4b3d b398 92bd
00000130: 12f2 4fbd d9b9 a6bc 11cd c8bd d22d 2ebd
00000140: 5cca 383c f84d 593c b03e 1bbe 2bbe 09be
00000150: e733 613d b119 593d aa18 6bbd a16b 9a3c
00000160: aff7 18be 0308 0fbe 210d 493e 3f88 ba3d
00000170: 682b 2f3d 5bad f2bd deeb edbc 0de7 df3d
00000180: 19ed 93bd 5b9e 653d 5377 0abd 3f76 60be
00000190: d574 c13c 68a1 d03d 969b 00bc 1def c8bd
000001a0: 6dab d93d b130 a43d fdde c03d 9029 f93d
000001b0: 6736 11bd e81a a3bd 5fba 32bd 792e f03d
000001c0: ec59 17be cb4e c33c 715b 433e 9d3b 383e
000001d0: c990 f0bb d80f 1d3d 92ba 193d b5ea e23c
000001e0: 821c 78bd 5c3b f4bc 4101 1bbe d210 09bc
000001f0: ad6a 173c 0517 8bbd 461b 963d 2f54 493e
00000200: 1662 243e 5db1 bd3d 601c cbbd f07f 81be
00000210: 58bb c8bd 31d4 0e3e 3d75 583e f465 cf3b
00000220: 4fd4 babb 9982 e5bd a8b3 3fbe 466e b03d
00000230: d017 89bd da02 67be 7bd7 39bc 5381 4bbd
00000240: 6805 09bd d2cc c83d 0868 6abd c590 ebbd
00000250: 3c7d b9bd a42d 083c a5e0 34be eae6 f5bd
00000260: a149 03be bb96 e13d fb5f 453d e1a5 233c
00000270: 9e62 a2bd a57e f1bd 63b0 cbbc d69f 553c
00000280: 54cb 62bc c0af e3bd f34b 82bc aacf 793d
00000290: 9a19 173d 4ae3 49be e727 7abc 107d a93c
000002a0: 7a44 8cbc f910 e8bd 651c 253c 4123 11be
000002b0: 4085 1fbd 6a37 05be d76a 0dbe 0a9d bfbd
000002c0: 065e 67bd d474 493c a401 0b3e a4ce 493d
000002d0: 3838 47bd c768 a73e 3dc9 f83d dc37 0b3d
000002e0: 3eb9 bfbc 27a0 91bd abe2 c1bd 9342 80bd
000002f0: 55e8 58bc bb7b fc3c 69ad 28bd abf5 f7bd
00000300: 93c0 a2bd d4d4 c6bd 8f52 a83d 7696 253d
00000310: fcd5 f2bd fec0 5d3c 3de8 9dbe 561a 9abe
00000320: e124 a0bd c7fe e83d dad9 09bd cfd0 523e
00000330: 50ce 1e3e df5c 50bc b8ed d73d 36eb a6bd
00000340: c6cf 843c 90ba 37bd 0268 56bd 982b dd3c
00000350: d452 13be ee1c 0ebe ea74 17bd 946d 6abd
00000360: 163a c6bd daee dcbd 1d39 7c3c 4007 1ebe
00000370: e29a 883d 5bc3 babd 68cc 07be afb2 a7bd
00000380: 308a da3b f350 fa3d 31d0 09be 8f2c 11bd
00000390: c8bb 2c3d ce58 a33c 03ab a8bd e108 4fb8
000003a0: 85c6 ecbb f314 a1bd 12a0 cfbd 9614 11be
000003b0: 18c8 33be 094f c83d 66ae e5bd a6f8 cbbd
000003c0: 5f2d a33d b821 70bd f00b 13bd d631 dabe
000003d0: d309 1ebe 6297 fcbd 9e8c ddbd 4716 a7bd
000003e0: 3437 25be 84ba a3bd 21c8 c9ba 79c3 a0bd
000003f0: 06ca c43d 3260 393e 721f 083d 9626 95bd

feature.6.bias f4 [32]
0.06095214 -0.023677941 -0.030422224 -0.01742447 -0.039008375 0.0050672772 -0.0020874897 -0.016117765
-0.03574867 0.019999085 0.021645678 0.007716804 0.027937831 -0.037720766 0.005322802 -0.0072339107
0.023096975 -0.035973903 0.051016934 -0.02482135 -0.0023916725 -0.010346329 -0.039031327 0.013628935
0.017197628 0.00073016935 0.03606485 0.035607453 -0.01619199 -0.001736291 -0.018068206 0.016627543
00000000: f3a8 793d 3ef8 c1bc 0738 f9bc c3bd 8ebc
00000010: 3fc7 1fbd 670b a63b 44ce 08bb 6709 84bc
00000020: 336d 12bd 1fd5 a33c 4752 b13c 3edd fc3b
00000030: e1dd e43c 1781 1abd e66a ae3b 710a edbb
00000040: de35 bd3c 5f59 13bd 22f7 503d 2556 cbbc
00000050: 9bbd 1cbb a683 29bc 50df 1fbd e64b 5f3c
00000060: 0ae2 8c3c d668 3f3a bcb8 133d 1fd9 113d
00000070: 10a5 84bc 4294 e3ba c603 94bc 7c36 883c

feature.9.weight f4 [256, 288]
-0.22019167 0.011663569 0.03393673 -0.080181785 -0.06827609 -0.00015583576 -0.1523754 0.053523898
-0.02900257 0.047742408 -0.0046177967 -0.2673425 0.122424014 -0.113310814 0.08391368 -0.061036658
0.09559166 -0.028216261 0.10128227 0.009747286 -0.0925588 0.03250796 -0.05769973 -0.16644198
-0.031225456 0.10236986 0.09401237 0.040479556 -0.1709283 -0.0076565975 0.015317888 -0.03985256
0.046940815 -0.038243137 -0.11551083 0.21259297 0.02331739 0.054038256 0.11094862 -0.04718508
0.1269641 -0.04007366 -0.043874685 0.08310893 0.00910477 0.12256177 -0.1292829 -0.12114207
-0.060488325 0.019336486 0.020001978 -0.08100863 0.068662025 0.015597017 -0.07606781 -0.083531134
-0.010890933 0.009646471 -0.04876211 -0.15756086 0.005192854 -0.015480472 -0.10973722 -0.03574734
-0.0071319793 -0.10126629 0.12560742 0.11378244 -0.008616488 0.12607664 -0.07174297 -0.034029007
-0.060433127 -0.08686705 0.21920182 -0.10337989 0.024877217 0.021554437 -0.11342129 -0.12309066
0.067780025 -0.051817965 0.060892623 0.12937827 -0.04443546 0.035604723 0.11218098 0.03037236
-0.15797265 -0.022134308 0.058382493 -0.043347705 0.12198919 -0.021424245 -0.02652489 0.13456374
0.017111098 -0.10298998 -0.028755913 -0.08579636 -0.04265128 -0.032472547 0.14314567 0.13426973
-0.011938086 -0.023950567 -0.0032410524 0.028822934 -0.1363813 0.0066654095 0.054219905 -0.050747573
0.16077584 0.013145042 -0.10960498 -0.116867125 0.013004443 0.07250311 0.029212272 -0.050509583
-0.062408436 -0.013965068 0.06623353 -0.10147452 0.035363466 -0.003494129 -0.063165545 0.042104073
-0.07849238 -0.029123552 0.2804358 0.01043778 0.09692071 -0.0046916865 0.04919257 -0.06678192
0.029436022 -0.07257584 0.01233355 0.07120102 -0.054492287 -0.08786773 0.1692786 0.020399898
-0.027324395 -0.09073271 0.017069139 0.026765378 0.10858729 0.009083337 -0.07181073 -0.045929786
-0.026819894 0.20558639 -0.06183306 0.040808946 0.034953162 0.06572205 -0.117735334 0.023714414
0.07041742 -0.010660733 -0.14976193 0.113730066 -0.09755427 0.03450189 0.1643583 -0.055269707
0.009141801 -0.13539717 -0.18316065 0.07851827 0.16707647 -0.050565112 0.022840288 -0.046003275
-0.06937282 0.09158961 0.06320745 0.06691944 -0.047331918 0.006717626 0.021666313 -0.023161687
-0.03399544 0.057328563 -0.22204229 -0.1404072 0.08098806 0.07750735 -0.058455247 -0.12892541
-0.054696627 -0.086603254 0.11137419 -0.03445146 -0.028278152 0.097595856 -0.037030913 0.03840641
0.057429075 0.09671733 -0.019532109 0.107082605 -0.032416996 0.061614282 -0.007796765 0.027394395
-0.04392585 0.060814757 -0.0630805 0.04737175 -0.0224532 -0.012580478 0.04941401 0.017669562
-0.0644836 0.0191279 -0.059903674 0.04409278 0.05404299 0.106244184 -0.09254819 -0.2246847
0.014623822 0.10615908 0.07311539 -0.013298735 0.06818499 -0.18799068 0.27322373 -0.011446634
0.105927125 -0.07279877 -0.034459725 0.10970304 0.055233262 -0.0787791 0.20112059 0.04565156
0.0032700424 -0.015703673 0.07592003 -0.013192858 -0.0018001787 0.041800093 -0.04520967 -0.055388395
-0.060448833 -0.019165037 -0.016863441 -0.035854768 -0.13695951 0.10512367 -0.01633538 0.05602952
00000000: ed79 61be 8e18 3f3c 3e01 0b3d 5936 a4bd
00000010: 56d4 8bbd d867 23b9 4c08 1cbe e03b 5b3d
00000020: cc96 edbc 8b8d 433d e350 97bb 1ee1 88be
00000030: 71b9 fa3d 800f e8bd efda ab3d 9301 7abd
00000040: 8fc5 c33d ca25 e7bc 146d cf3d 15b3 1f3c
00000050: 788f bdbd 1127 053d 8d56 6cbd c46f 2abe
00000060: 87cc ffbc 4aa7 d13d 8f89 c03d e4cd 253d
00000070: d407 2fbe 32e4 fabb e1f7 7a3c 703c 23bd
00000080: 0345 403d d6a4 1cbd f190 ecbd f9b1 593e
00000090: 1c04 bf3c 3857 5d3d 0839 e33d 2445 41bd
000000a0: e102 023e 4724 24bd f1b5 33bd 0435 aa3d
000000b0: 2c2c 153c aa01 fb3d bd62 04be 5519 f8bd
000000c0: 9bc2 77bd 8d67 9e3c 30db a33c dae7 a5bd
000000d0: ad9e 8c3d a18a 7f3c 71c9 9bbd 5f12 abbd
000000e0: e26f 32bc 3b0c 1e3c c7ba 47bd a257 21be
000000f0: d128 aa3b cea1 7dbc e8bd e0bd ce6b 12bd
00000100: 61b3 e9bb b364 cfbd 3b9f 003e c506 e93d
00000110: 2c2c 0dbc 3c1a 013e faed 92bd 0062 0bbd
00000120: ba88 77bd 5ae7 b1bd 7176 603e d6b8 d3bd
00000130: 4ecb cb3c ee92 b03c 6c49 e8bd f516 fcbd
00000140: 41d0 8a3d 133f 54bd 8b6a 793d bd7b 043e
00000150: f501 36bd 42d6 113d 24bf e53d 75cf f83c
00000160: 95c3 21be 0253 b5bc 7b22 6f3d 5d8d 31bd
00000170: 78d5 f93d e681 afbc ba4a d9bc 14cb 093e
00000180: 932c 8c3c 69ec d2bd 8591 ebbc 01b6 afbd
00000190: 1cb3 2ebd ef01 05bd c794 123e 017e 093e
000001a0: f697 43bc fb33 c4bc d667 54bb 131e ec3c
000001b0: 8aa7 0bbe 8269 da3b b115 5e3d b0dc 4fbd
000001c0: 6ca2 243e 4d5e 573c 9378 e0bd 0858 efbd
000001d0: 9610 553c 837c 943d 934e ef3c 23e3 4ebd
000001e0: fd9f 7fbd becd 64bc 72a5 873d e0d1 cfbd
000001f0: 48d9 103d c2fd 64bb f05c 81bd 5275 2c3d
00000200: 9dc0 a0bd 8494 eebc 4895 8f3e 3903 2b3c
00000210: 5d7e c63d b8bc 99bb 267e 493d f6c4 88bd
00000220: d023 f13c a4a2 94bd a812 4a3c d7d1 913d
00000230: 4e33 5fbd fff3 b3bd 5f57 2d3e b01d a73c
00000240: 69d7 dfbc 12d2 b9bd 94d4 8b3c 1143 db3c
00000250: 0363 de3d 47d2 143c 8111 93bd df20 3cbd
00000260: 65b5 dbbc 3d85 523e aa44 7dbd 4827 273d
00000270: 0c2b 0f3d 4899 863d 391f f1bd bb44 c23c
00000280: 0237 903d 5baa 2ebc 315b 19be 4feb e83d
00000290: 88ca c7bd db51 0d3d 8b4d 283e 7d62 62bd
000002a0: 7ec7 153c 8ea5 0abe 778e 3bbe 30ce a03d
000002b0: 1816 2b3e 5d1d 4fbd 8e1b bb3c ee6d 3cbd
000002c0: 5613 8ebd 5593 bb3d e872 813d 0f0d 893d
000002d0: 1ddf 41bd 881f dc3b 8d7d b13c 94bd bdbc
000002e0: cd3e 0bbd 5bd1 6a3d 0e5f 63be e8c6 0fbe
000002f0: 11dd a53d 2cbc 9e3d c56e 6fbd 0605 04be
00000300: 9209 60bd 0c5d b1bd 2718 e43d f91c 0dbd
00000310: 95a7 e7bc 56e0 c73d baad 17bd 0a50 1d3d
00000320: c03a 6b3d bc13 c63d cd01 a0bc 204e db3d
00000330: afc7 04bd 425f 7c3d 017c ffbb 366a e03c
00000340: 98eb 33bd e518 793d 5930 81bd e108 423d
00000350: c6ef b7bc 591e 4ebc 5866 4a3d c2bf 903c
00000360: fa0f 84bd 1db2 9c3c 8e5d 75bd a29a 343d
00000370: 2f5c 5d3d 8d96 d93d e889 bdbd bf13 66be
00000380: c198 6f3c ef69 d93d 86bd 953d f0e2 59bc
00000390: 92a4 8b3d a180 40be fbe3 8b3e aa8a 3bbc
000003a0: 52f0 d83d 8617 95bd a425 0dbd fdab e03d
000003b0: 463c 623d f056 a1bd 8ef2 4d3e 21fd 3a3d
000003c0: 354e 563b fda4 80bc f67b 9b3d db26 58bc
000003d0: f9f3 ebba 9336 2b3d c62d 39bd f1de 62bd
000003e0: 3299 77bd ffff 9cbc 3325 8abc 73dc 12bd
000003f0: 1d3f 0cbe 144b d73d c6d1 85bc 367f 653d

feature.9.bias f4 [256]
0.011890481 0.0066480353 0.01665173 -0.011349437 -0.13534999 -0.0050864825 -0.0128155155 -0.035654698
-0.005476765 0.013576478 0.000718745 -0.017347544 0.0144413505 -0.012721111 -0.04775814 -0.09888083
0.015673004 0.0048280032 -0.007836174 0.020330252 0.010383686 0.009858175 0.0020108987 0.019839799
0.017837731 -0.008691783 0.03200521 -0.013109533 -0.012425533 0.03452162 -0.0037466038 -0.013866211
-0.10767029 0.024184795 -0.0029876668 0.0061061145 -0.013369003 -0.11358891 0.0045693023 0.024062634
-0.004030101 -0.0034181147 -0.0059524807 -0.01354236 -0.006192341 0.009746036 -0.15393314 -0.0017057107
-0.0018248365 -0.10936926 0.00023064636 0.014782687 -0.046668842 -0.0045984397 0.009518273 0.019382471
-0.018593997 0.004899876 0.0069826273 0.00961749 -0.022513585 0.044782177 -0.039199486 0.016461747
0.004682829 0.008117101 0.013131783 -0.057196584 -0.019460296 0.009787978 0.0046890993 -0.0343242
0.025662752 -0.007447559 0.018397966 -0.003265142 0.025769506 -0.07205774 0.018319197 0.035725642
0.007838842 -0.0073237712 -0.01103542 0.018118996 0.019924052 0.020705221 -0.033559803 -0.014340856
0.008303086 0.006015545 -0.011773054 -0.08576146 -0.018961864 0.035778757 0.020753348 0.025896475
-0.045179296 0.02932096 0.023708556 0.015574752 -0.035049587 -0.009322345 -0.090407446 0.00013209501
-0.0004901191 0.0050647827 -0.042393345 0.0014363535 -0.011589987 0.011507988 -0.0059254984 0.020120762
-0.009452303 -0.009138397 -0.0908792 0.008901068 0.0015736772 -0.026003936 -0.033282127 -0.0007327757
0.02131407 0.019457309 -0.0377441 0.005327259 0.0023996348 0.011635125 -0.005956688 -0.0672965
-0.021810833 0.0066547734 -0.014632694 -0.012405775 -0.06080128 -0.048364382 -0.0647526 -0.024345484
-0.03548199 0.023360647 0.0069210557 0.028242666 -0.12971185 0.019020021 0.0071101408 -0.0496009
-0.051028315 0.023934996 0.009373212 0.0144210905 -0.06299764 -0.0048443098 0.015187008 -0.0060197897
0.000104535386 -0.0023386187 0.0150851915 -0.011444519 0.01594078 0.015416085 -0.003363928 0.004136786
0.017423421 -0.037907165 0.0028788098 -0.06963909 -0.022441816 -0.03162885 0.0222542 -0.06680622
-0.010395042 0.016598612 -0.011173003 0.0022838677 0.011467084 -0.011288137 0.017397314 0.0029734278
-0.10590801 0.011633532 0.008045626 0.00010821599 -0.009411798 -0.0062485957 -0.0049106097 0.018259961
-0.0026480085 0.027718648 0.0071516423 -0.015116399 -0.016550353 -0.04256079 0.018370472 -0.01092111
0.031266585 -0.025435237 0.06140746 -0.0003178189 0.01544377 -0.062278915 -0.08812097 0.037913207
-0.004270448 0.00091008167 0.010237282 0.030458638 0.05137846 -0.031894695 0.021064771 0.005779861
-0.007511125 -4.8383605e-05 -0.03495857 0.001961364 0.0100399945 -0.005951652 -0.002161023 -0.002027055
-0.0632916 0.028254775 0.0045300107 0.003099182 -0.00815989 0.0031358544 -0.0015502681 -0.0080531435
0.0019573364 0.03439418 -0.027649911 0.008540483 -0.0021585987 0.0006136244 0.003253514 -0.06563656
-0.02810661 0.0155958515 -0.006720195 -0.028969903 0.018921847 -0.017990706 0.017822377 -0.051034514
0.0007196552 -0.106714 -0.021638123 0.039519515 0.004025766 -0.105541185 0.01123827 0.010601007
0.010973067 -4.768099e-05 -0.05792391 -0.016384074 0.0005008443 0.00936301 -0.0042271977 -0.0018366541
00000000: 4bd0 423c c3d7 d93b 3569 883c fdf2 39bc
00000010: 3099 0abe 82ac a6bb 2bf8 51bc a90a 12bd
00000020: 6f76 b3bb e06f 5e3c 296a 3c3a 701c 8ebc
00000030: 6a9b 6c3c 356c 50bc 0a9e 43bd 0882 cabd
00000040: ac64 803c 3a34 9e3b 4c63 00bc a18b a63c
00000050: 5620 2a3c 2f84 213c 48c9 033b 1387 a23c
00000060: 6f20 923c fb67 0ebc e517 033d 5ec9 56bc
00000070: 7694 4bbc 8b66 0d3d 9589 75bb 1b2f 63bc
00000080: 3e82 dcbd 311f c63c bbcc 43bb cd15 c83b
00000090: aa09 5bbc 4da1 e8bd 16ba 953b 001f c53c
000000a0: f00e 84bb 7302 60bb 070d c3bb c6e0 5dbc
000000b0: 1fe9 cabb d6ad 1f3c a6a0 1dbe 2792 dfba
000000c0: 5a2f efba fefc dfbd a9d9 7139 1533 723c
000000d0: d427 3fbd 82ae 96bb 88f2 1b3c fdc7 9e3c
000000e0: 7052 98bc 248f a03b 86ce e43b ad92 1d3c
000000f0: 696e b8bc 846d 373d a48f 20bd c9da 863c
00000100: 6b72 993b 97fd 043c b126 573c f746 6abd
00000110: 336b 9fbc c15d 203c 04a7 993b 8897 0cbd
00000120: b13a d23c a70a f4bb 55b7 963c fefb 55bb
00000130: 921a d33c 0293 93bd 2412 963c 0d55 123d
00000140: 7d6e 003c 3ffc efbb e8cd 34bc 4a6e 943c
00000150: c437 a33c ff9d a93c 0176 09bd e9f5 6abc
00000160: ab09 083c 0d1e c53b c4e3 40bc b4a3 afbd
00000170: e955 9bbc bf8c 123d ed02 aa3c d824 d43c
00000180: ed0d 39bd 8332 f03c 7238 c23c 3f2d 7f3c
00000190: 2890 0fbd c0bc 18bc 8a27 b9bd fc82 0a39
000001a0: 567b 00ba 7af6 a53b a5a4 2dbd 0744 bc3a
000001b0: eee3 3dbc 008c 3c3c af2a c2bb 4cd4 a43c
000001c0: d5dd 1abc 37b9 15bc e01e babd c9d5 113c
000001d0: d843 ce3a 3506 d5bc d752 08bd bf17 40ba
000001e0: d89a ae3c ef64 9f3c 8f99 1abd 4a90 ae3b
000001f0: 3143 1d3b 40a1 3e3c 5230 c3bb bfd2 89bd
00000200: a2ac b2bc 4910 da3b f8bd 6fbc 9741 4bbc
00000210: c30a 79bd bb19 46bd 039d 84bd 2e70 c7bc
00000220: 9055 11bd d45e bf3c 06ca e23b 2a5d e73c
00000230: 2fd3 04be e0cf 9b3c 2ffc e83b 502a 4bbd
00000240: 1103 51bd 5313 c43c 1a92 193c 7046 6c3c
00000250: e804 81bd 04bd 9ebb eed2 783c a841 c5bb
00000260: 023a db38 8343 19bb e127 773c cb81 3bbc
00000270: 3d96 823c bf93 7c3c 5975 5cbb e08d 873b
00000280: 90bb 8e3c 8b44 1bbd 6aaa 3c3b f09e 8ebd
00000290: e6d7 b7bc 418d 01bd 714e b63c b3d1 88bd
000002a0: f74f 2abc d0f9 873c f90e 37bc f1ac 153b
000002b0: 70e0 3b3c e1f1 38bc d084 8e3c d7dd 423b
000002c0: 4ce6 d8bd 929a 3e3c cdd1 033c 04f2 e238
000002d0: f133 1abc 05c1 ccbb 2ee9 a0bb ea95 953c
000002e0: 368a 2dbb 3812 e33c 5358 ea3b c6aa 77bc
000002f0: 9b94 87bc 3954 2ebd ac7d 963c 75ee 32bc
00000300: 6411 003d 8f5d d0bc 6486 7b3d eea0 a6b9
00000310: de07 7d3c 2d18 7fbd c478 b4bd e14a 1b3d
00000320: 1def 8bbb 8c92 6e3a 46ba 273c 6584 f93c
00000330: 3872 523d 03a4 02bd 0790 ac3c fd64 bd3b
00000340: e21f f6bb 80ef 4ab8 b830 0fbd 3a8a 003b
00000350: ca7e 243c 1306 c3bb f39f 0dbb 57d8 04bb
00000360: 079f 81bd 8f76 e73c 7c70 943b a51b 4b3b
00000370: 0fb1 05bc e882 4d3b 5e32 cbba 55f1 03bc
00000380: a846 003b e9e0 0c3d 1182 e2bc 62ed 0b3c
00000390: 4777 0dbb a3db 203a e838 553b 766c 86bd
000003a0: d53f e6bc be85 7f3c 1535 dcbb 4a52 edbc
000003b0: fd01 9b3c 3f61 93bc 3c00 923c 9109 51bd
000003c0: 3ea7 3c3a df8c dabd 6f42 b1bc 37df 213d
000003d0: 93ea 833b fa25 d8bd b920 383c d9af 2d3c
000003e0: 61c8 333c 13fd 47b8 9f41 6dbd e537 86bc
000003f0: 184b 033a 4f67 193c 4e84 8abb e3bb f0ba

actor.0.weight f4 [3, 256]
-0.054521155 -0.08198347 -0.08533013 -0.10762761 -0.0035631359 0.019785335 -0.0010174433 0.06762447
0.046680372 -0.051283646 -0.0606166 -0.10554929 -0.21135308 0.069136254 0.092256375 -0.0018243989
-0.039045446 -0.0527427 -0.088208415 -0.017876668 0.08993402 0.004305216 -0.029078104 0.06539967
-0.014939942 0.111610636 0.059614394 -0.08522007 0.04190996 -0.025548926 0.028482731 0.06285664
-0.0017002955 -0.041038964 0.007372718 -0.08132655 -0.086548924 0.013134625 0.19112304 -0.12321735
-0.09395879 0.036385827 0.066565946 0.09499816 -0.0080713825 -0.026605498 -0.007318436 -0.024325198
-0.07669074 -0.01888191 0.10821029 -0.061055813 0.00023022389 0.01494676 -0.034659404 0.057572372
-0.09622637 0.0013763855 -0.10433707 0.11759856 0.035074502 -0.10553031 0.07996893 -0.008905582
0.035260383 0.009841721 -0.08266127 0.009833358 -0.07788122 -0.0546713 -0.10430787 -0.008695685
0.019215964 0.19661199 -0.027291136 -0.03266107 0.035103187 -0.0033770695 -0.0070641483 0.02669978
0.013013974 0.041888 -0.070679024 -0.106270656 0.0010137202 -0.02410193 0.09214144 0.038928732
-0.030014638 -0.0146310665 0.060444623 0.049310517 -0.035404436 -0.1303496 -0.025184276 -0.0688424
-0.01575489 0.026079232 -0.14206043 0.025691494 0.023368863 0.050119225 0.011090848 -0.08428575
0.016310122 0.12657842 8.153617e-05 0.0737682 0.07103763 -0.12545396 0.10414139 0.01202943
-0.060829718 0.04442734 -0.0062910686 -0.093551725 0.12728357 0.19084173 0.091014564 -0.09007148
0.034802295 0.017615877 0.06671097 -0.067705594 0.008180423 0.13642536 0.15159939 0.025651403
0.05957941 -0.06655698 0.09425506 0.1721664 -0.08136882 0.058712564 -0.0019365705 -0.13485381
0.01924605 -0.07806634 -0.081920855 -0.15189806 -0.0010903027 -0.20997295 0.04545238 -0.064975984
0.006335839 0.06514833 0.11339923 0.02110727 0.0011617898 -0.08164405 -0.07464544 0.005358928
-0.13011554 -0.11197144 -0.0324 -0.122772634 -0.047991578 0.07082781 0.059917726 0.0035536403
-0.044159587 0.11930529 0.045583095 0.0068459553 0.13594912 0.012569484 0.06393891 -0.002330578
0.020662263 -0.008294595 0.07512029 -0.011688136 -0.095959924 -0.10285712 -0.05043027 0.0053106477
-0.0011490138 0.088202395 0.09515857 0.020089861 0.052302334 -0.09161086 0.12584831 0.009725473
-0.020173961 -0.053483564 -0.0023071854 0.0066749854 0.057170186 -0.02449864 0.032938864 0.05763255
-0.035665024 0.09244551 -0.016029665 -0.13073246 -0.0030248782 -0.045928445 -0.00076105015 -0.059513938
-0.041738253 0.0035728337 -0.013099436 -0.0014506978 0.006385348 -0.095156826 0.049995456 -0.12664105
-0.01307538 0.07738284 0.10472328 0.18882799 0.13362353 -0.058998328 0.13559493 0.11576835
-0.00016284491 -0.08771531 -0.001526758 -0.031208334 -0.044986118 0.051415984 0.14477983 -0.06984532
0.001311259 0.03352975 -0.10104797 -0.08654214 0.0045461846 0.12524034 -0.05689338 0.030775921
-0.04341449 -0.025005523 0.1821226 -0.14538325 -0.056102518 -0.015223713 -0.061188433 -0.023845753
0.10881287 -0.0037194183 -0.010786666 -0.14642082 -0.013911189 -0.002484128 -0.0013390983 0.028396808
-0.0067551644 0.012030415 -0.0076751052 -0.0026681763 -0.026500098 -0.22768846 0.012247714 0.060544495
00000000: 9351 5fbd f3e6 a7bd 90c1 aebd dd6b dcbd
00000010: 8083 69bb db14 a23c bb5b 85ba b37e 8a3d
00000020: eb33 3f3d cd0e 52bd 1d49 78bd 3a2a d8bd
00000030: f16c 58be 4f97 8d3d e9f0 bc3d ab20 efba
00000040: 1eee 1fbd bb08 58bd 9da6 b4bd 1772 92bc
00000050: 542f b83d c512 8d3b 3435 eebc 43f0 853d
00000060: a9c6 74bc 1e94 e43d 392e 743d dc87 aebd
00000070: c7a9 2b3d fb4b d1bc 9e54 e93c fbba 803d
00000080: 73dc deba 7918 28bd d796 f13b 898e a6bd
00000090: 9040 b1bd 9c32 573c c2b5 433e 6159 fcbd
000000a0: 776d c0bd 4e09 153d ba53 883d 658e c23d
000000b0: d53d 04bc c6f3 d9bc 7ecf efbb a345 c7bc
000000c0: 0910 9dbd 3cae 9abc 5b9d dd3d a915 7abd
000000d0: 4168 7139 41e3 743c 05f7 0dbd 02d1 6b3d
000000e0: 5512 c5bd d567 b43a acae d5bd 84d7 f03d
000000f0: 48aa 0f3d 4620 d8bd c0c6 a33d b8e8 11bc
00000100: 316d 103d 2b3f 213c 504a a9bd 181c 213c
00000110: 3080 9fbd 03ef 5fbd 5d9f d5bd 5978 0ebc
00000120: cc6a 9d3c a754 493e a991 dfbc 9dc7 05bd
00000130: 5cc8 0f3d d351 5dbb 5f7a e7bb 7fb9 da3c
00000140: 9038 553c c092 2b3d 2ac0 90bd 6ea4 d9bd
00000150: cede 843a 6971 c5bc a7b4 bc3d bc73 1f3d
00000160: 42e1 f5bc 24b7 6fbc c894 773d d3f9 493d
00000170: 3e04 11bd 5e7a 05be 414f cebc 3ffd 8cbd
00000180: 6610 81bc 1da4 d53c 4a78 11be f876 d23c
00000190: 0f70 bf3c d149 4d3d 63b6 353c 029e acbd
000001a0: ce9c 853c c69d 013e 66fe aa38 c813 973d
000001b0: 2d7c 913d 0177 00be 1548 d53d 1617 453c
000001c0: 9528 79bd 71f9 353d 4f25 cebb 0c98 bfbd
000001d0: a056 023e 046c 433e d865 ba3d 6577 b8bd
000001e0: da8c 0e3d 2c4f 903c c39f 883d 3ba9 8abd
000001f0: 2e07 063c 17b3 0b3e df3c 1b3e e422 d23c
00000200: 8a09 743d 074f 88bd cc08 c13d 644c 303e
00000210: b2a4 a6bd 967c 703d 86d4 fdba 1e17 0abe
00000220: e4a9 9d3c 3fe1 9fbd 1fc6 a7bd 2a8b 1bbe
00000230: 7de8 8eba 2603 57be 462c 3a3d 2112 85bd
00000240: df9c cf3b 7d6c 853d db3d e83d 27e9 ac3c
00000250: 3247 983a ff34 a7bd b5df 98bd f299 af3b
00000260: 023d 05be 4851 e5bd ddb5 04bd 3870 fbbd
00000270: d192 44bd 2c0e 913d 4a6c 753d 31e4 683b
00000280: afe0 34bd 5556 f43d 57b5 3a3d 0954 e03b
00000290: 3f36 0b3e 3df0 4d3c 67f2 823d 9cbc 18bb
000002a0: e843 a93c 0ee6 07bc abd8 993d 987f 3fbc
000002b0: a386 c4bd c1a6 d2bd f98f 4ebd f104 ae3b
000002c0: 819a 96ba 75a3 b43d 7fe2 c23d 7e93 a43c
000002d0: f93a 563d 799e bbbd 61de 003e 9757 1f3c
000002e0: dd43 a5bc 9511 5bbd 2634 17bb d6b9 da3b
000002f0: 492b 6a3d 5fb1 c8bc e7ea 063d 1c10 6c3d
00000300: 7d15 12bd 1254 bd3d a550 83bc bbde 05be
00000310: 093d 46bb 771f 3cbd 3681 47ba e3c4 73bd
00000320: bbf5 2abd 3426 6a3b 049f 56bc 5725 beba
00000330: 2e3c d13b 95e1 c2bd 09c8 4c3d 31ae 01be
00000340: 1e3a 56bc e57a 9e3d 2979 d63d 205c 413e
00000350: 9bd4 083e 3ba8 71bd 66d9 0a3e f517 ed3d
00000360: 59c1 2ab9 16a4 b3bd 7f1d c8ba 9fa8 ffbc
00000370: 5d43 38bd 9199 523d 2a41 143e 100b 8fbd
00000380: 8dde ab3a 7e56 093d 3df2 cebd 013d b1bd
00000390: 29f8 943b 013f 003e 0809 69bd c91d fc3c
000003a0: 64d3 31bd 62d8 ccbc 597e 3a3e 59df 14be
000003b0: c1cb 65bd e16c 79bc b9a0 7abd 2b58 c3bc
000003c0: 48d9 de3d 7cc1 73bb 8eba 30bc 57ef 15be
000003d0: c1eb 63bc c1cc 22bb af84 afba 6ca0 e83c
000003e0: 6d5a ddbb 381b 453c 737f fbbb 92dc 2ebb
000003f0: bc16 d9bc 2a27 69be a3aa 483c 81fd 773d

actor.0.bias f4 [3]
0.0014718603 -0.004950846 0.008584368
00000000: 70eb c03a b53a a2bb 73a5 0c3c
